{"format": "layers-model", "generatedBy": "keras v2.12.0", "convertedBy": "TensorFlow.js Converter v4.6.0", "modelTopology": {"keras_version": "2.12.0", "backend": "tensorflow", "model_config": {"class_name": "Functional", "config": {"name": "model_1", "trainable": true, "layers": [{"class_name": "InputLayer", "config": {"batch_input_shape": [null, null, null, 3], "dtype": "float32", "sparse": false, "ragged": false, "name": "input_10"}, "name": "input_10", "inbound_nodes": []}, {"class_name": "Conv2D", "config": {"name": "conv2d_846", "trainable": true, "dtype": "float32", "filters": 32, "kernel_size": [3, 3], "strides": [2, 2], "padding": "valid", "data_format": "channels_last", "dilation_rate": [1, 1], "groups": 1, "activation": "linear", "use_bias": false, "kernel_initializer": {"class_name": "GlorotUniform", "config": {"seed": null}}, "bias_initializer": {"class_name": "Zeros", "config": {}}, "kernel_regularizer": null, "bias_regularizer": null, "activity_regularizer": null, "kernel_constraint": null, "bias_constraint": null}, "name": "conv2d_846", "inbound_nodes": [[["input_10", 0, 0, {}]]]}, {"class_name": "BatchNormalization", "config": {"name": "batch_normalization_846", "trainable": true, "dtype": "float32", "axis": [3], "momentum": 0.99, "epsilon": 0.001, "center": true, "scale": false, "beta_initializer": {"class_name": "Zeros", "config": {}}, "gamma_initializer": {"class_name": "Ones", "config": {}}, "moving_mean_initializer": {"class_name": "Zeros", "config": {}}, "moving_variance_initializer": {"class_name": "Ones", "config": {}}, "beta_regularizer": null, "gamma_regularizer": null, "beta_constraint": null, "gamma_constraint": null}, "name": "batch_normalization_846", "inbound_nodes": [[["conv2d_846", 0, 0, {}]]]}, {"class_name": "Activation", "config": {"name": "activation_846", "trainable": true, "dtype": "float32", "activation": "relu"}, "name": "activation_846", "inbound_nodes": [[["batch_normalization_846", 0, 0, {}]]]}, {"class_name": "Conv2D", "config": {"name": "conv2d_847", "trainable": true, "dtype": "float32", "filters": 32, "kernel_size": [3, 3], "strides": [1, 1], "padding": "valid", "data_format": "channels_last", "dilation_rate": [1, 1], "groups": 1, "activation": "linear", "use_bias": false, "kernel_initializer": {"class_name": "GlorotUniform", "config": {"seed": null}}, "bias_initializer": {"class_name": "Zeros", "config": {}}, "kernel_regularizer": null, "bias_regularizer": null, "activity_regularizer": null, "kernel_constraint": null, "bias_constraint": null}, "name": "conv2d_847", "inbound_nodes": [[["activation_846", 0, 0, {}]]]}, {"class_name": "BatchNormalization", "config": {"name": "batch_normalization_847", "trainable": true, "dtype": "float32", "axis": [3], "momentum": 0.99, "epsilon": 0.001, "center": true, "scale": false, "beta_initializer": {"class_name": "Zeros", "config": {}}, "gamma_initializer": {"class_name": "Ones", "config": {}}, "moving_mean_initializer": {"class_name": "Zeros", "config": {}}, "moving_variance_initializer": {"class_name": "Ones", "config": {}}, "beta_regularizer": null, "gamma_regularizer": null, "beta_constraint": null, "gamma_constraint": null}, "name": "batch_normalization_847", "inbound_nodes": [[["conv2d_847", 0, 0, {}]]]}, {"class_name": "Activation", "config": {"name": "activation_847", "trainable": true, "dtype": "float32", "activation": "relu"}, "name": "activation_847", "inbound_nodes": [[["batch_normalization_847", 0, 0, {}]]]}, {"class_name": "Conv2D", "config": {"name": "conv2d_848", "trainable": true, "dtype": "float32", "filters": 64, "kernel_size": [3, 3], "strides": [1, 1], "padding": "same", "data_format": "channels_last", "dilation_rate": [1, 1], "groups": 1, "activation": "linear", "use_bias": false, "kernel_initializer": {"class_name": "GlorotUniform", "config": {"seed": null}}, "bias_initializer": {"class_name": "Zeros", "config": {}}, "kernel_regularizer": null, "bias_regularizer": null, "activity_regularizer": null, "kernel_constraint": null, "bias_constraint": null}, "name": "conv2d_848", "inbound_nodes": [[["activation_847", 0, 0, {}]]]}, {"class_name": "BatchNormalization", "config": {"name": "batch_normalization_848", "trainable": true, "dtype": "float32", "axis": [3], "momentum": 0.99, "epsilon": 0.001, "center": true, "scale": false, "beta_initializer": {"class_name": "Zeros", "config": {}}, "gamma_initializer": {"class_name": "Ones", "config": {}}, "moving_mean_initializer": {"class_name": "Zeros", "config": {}}, "moving_variance_initializer": {"class_name": "Ones", "config": {}}, "beta_regularizer": null, "gamma_regularizer": null, "beta_constraint": null, "gamma_constraint": null}, "name": "batch_normalization_848", "inbound_nodes": [[["conv2d_848", 0, 0, {}]]]}, {"class_name": "Activation", "config": {"name": "activation_848", "trainable": true, "dtype": "float32", "activation": "relu"}, "name": "activation_848", "inbound_nodes": [[["batch_normalization_848", 0, 0, {}]]]}, {"class_name": "MaxPooling2D", "config": {"name": "max_pooling2d_36", "trainable": true, "dtype": "float32", "pool_size": [3, 3], "padding": "valid", "strides": [2, 2], "data_format": "channels_last"}, "name": "max_pooling2d_36", "inbound_nodes": [[["activation_848", 0, 0, {}]]]}, {"class_name": "Conv2D", "config": {"name": "conv2d_849", "trainable": true, "dtype": "float32", "filters": 80, "kernel_size": [1, 1], "strides": [1, 1], "padding": "valid", "data_format": "channels_last", "dilation_rate": [1, 1], "groups": 1, "activation": "linear", "use_bias": false, "kernel_initializer": {"class_name": "GlorotUniform", "config": {"seed": null}}, "bias_initializer": {"class_name": "Zeros", "config": {}}, "kernel_regularizer": null, "bias_regularizer": null, "activity_regularizer": null, "kernel_constraint": null, "bias_constraint": null}, "name": "conv2d_849", "inbound_nodes": [[["max_pooling2d_36", 0, 0, {}]]]}, {"class_name": "BatchNormalization", "config": {"name": "batch_normalization_849", "trainable": true, "dtype": "float32", "axis": [3], "momentum": 0.99, "epsilon": 0.001, "center": true, "scale": false, "beta_initializer": {"class_name": "Zeros", "config": {}}, "gamma_initializer": {"class_name": "Ones", "config": {}}, "moving_mean_initializer": {"class_name": "Zeros", "config": {}}, "moving_variance_initializer": {"class_name": "Ones", "config": {}}, "beta_regularizer": null, "gamma_regularizer": null, "beta_constraint": null, "gamma_constraint": null}, "name": "batch_normalization_849", "inbound_nodes": [[["conv2d_849", 0, 0, {}]]]}, {"class_name": "Activation", "config": {"name": "activation_849", "trainable": true, "dtype": "float32", "activation": "relu"}, "name": "activation_849", "inbound_nodes": [[["batch_normalization_849", 0, 0, {}]]]}, {"class_name": "Conv2D", "config": {"name": "conv2d_850", "trainable": true, "dtype": "float32", "filters": 192, "kernel_size": [3, 3], "strides": [1, 1], "padding": "valid", "data_format": "channels_last", "dilation_rate": [1, 1], "groups": 1, "activation": "linear", "use_bias": false, "kernel_initializer": {"class_name": "GlorotUniform", "config": {"seed": null}}, "bias_initializer": {"class_name": "Zeros", "config": {}}, "kernel_regularizer": null, "bias_regularizer": null, "activity_regularizer": null, "kernel_constraint": null, "bias_constraint": null}, "name": "conv2d_850", "inbound_nodes": [[["activation_849", 0, 0, {}]]]}, {"class_name": "BatchNormalization", "config": {"name": "batch_normalization_850", "trainable": true, "dtype": "float32", "axis": [3], "momentum": 0.99, "epsilon": 0.001, "center": true, "scale": false, "beta_initializer": {"class_name": "Zeros", "config": {}}, "gamma_initializer": {"class_name": "Ones", "config": {}}, "moving_mean_initializer": {"class_name": "Zeros", "config": {}}, "moving_variance_initializer": {"class_name": "Ones", "config": {}}, "beta_regularizer": null, "gamma_regularizer": null, "beta_constraint": null, "gamma_constraint": null}, "name": "batch_normalization_850", "inbound_nodes": [[["conv2d_850", 0, 0, {}]]]}, {"class_name": "Activation", "config": {"name": "activation_850", "trainable": true, "dtype": "float32", "activation": "relu"}, "name": "activation_850", "inbound_nodes": [[["batch_normalization_850", 0, 0, {}]]]}, {"class_name": "MaxPooling2D", "config": {"name": "max_pooling2d_37", "trainable": true, "dtype": "float32", "pool_size": [3, 3], "padding": "valid", "strides": [2, 2], "data_format": "channels_last"}, "name": "max_pooling2d_37", "inbound_nodes": [[["activation_850", 0, 0, {}]]]}, {"class_name": "Conv2D", "config": {"name": "conv2d_854", "trainable": true, "dtype": "float32", "filters": 64, "kernel_size": [1, 1], "strides": [1, 1], "padding": "same", "data_format": "channels_last", "dilation_rate": [1, 1], "groups": 1, "activation": "linear", "use_bias": false, "kernel_initializer": {"class_name": "GlorotUniform", "config": {"seed": null}}, "bias_initializer": {"class_name": "Zeros", "config": {}}, "kernel_regularizer": null, "bias_regularizer": null, "activity_regularizer": null, "kernel_constraint": null, "bias_constraint": null}, "name": "conv2d_854", "inbound_nodes": [[["max_pooling2d_37", 0, 0, {}]]]}, {"class_name": "BatchNormalization", "config": {"name": "batch_normalization_854", "trainable": true, "dtype": "float32", "axis": [3], "momentum": 0.99, "epsilon": 0.001, "center": true, "scale": false, "beta_initializer": {"class_name": "Zeros", "config": {}}, "gamma_initializer": {"class_name": "Ones", "config": {}}, "moving_mean_initializer": {"class_name": "Zeros", "config": {}}, "moving_variance_initializer": {"class_name": "Ones", "config": {}}, "beta_regularizer": null, "gamma_regularizer": null, "beta_constraint": null, "gamma_constraint": null}, "name": "batch_normalization_854", "inbound_nodes": [[["conv2d_854", 0, 0, {}]]]}, {"class_name": "Activation", "config": {"name": "activation_854", "trainable": true, "dtype": "float32", "activation": "relu"}, "name": "activation_854", "inbound_nodes": [[["batch_normalization_854", 0, 0, {}]]]}, {"class_name": "Conv2D", "config": {"name": "conv2d_852", "trainable": true, "dtype": "float32", "filters": 48, "kernel_size": [1, 1], "strides": [1, 1], "padding": "same", "data_format": "channels_last", "dilation_rate": [1, 1], "groups": 1, "activation": "linear", "use_bias": false, "kernel_initializer": {"class_name": "GlorotUniform", "config": {"seed": null}}, "bias_initializer": {"class_name": "Zeros", "config": {}}, "kernel_regularizer": null, "bias_regularizer": null, "activity_regularizer": null, "kernel_constraint": null, "bias_constraint": null}, "name": "conv2d_852", "inbound_nodes": [[["max_pooling2d_37", 0, 0, {}]]]}, {"class_name": "Conv2D", "config": {"name": "conv2d_855", "trainable": true, "dtype": "float32", "filters": 96, "kernel_size": [3, 3], "strides": [1, 1], "padding": "same", "data_format": "channels_last", "dilation_rate": [1, 1], "groups": 1, "activation": "linear", "use_bias": false, "kernel_initializer": {"class_name": "GlorotUniform", "config": {"seed": null}}, "bias_initializer": {"class_name": "Zeros", "config": {}}, "kernel_regularizer": null, "bias_regularizer": null, "activity_regularizer": null, "kernel_constraint": null, "bias_constraint": null}, "name": "conv2d_855", "inbound_nodes": [[["activation_854", 0, 0, {}]]]}, {"class_name": "BatchNormalization", "config": {"name": "batch_normalization_852", "trainable": true, "dtype": "float32", "axis": [3], "momentum": 0.99, "epsilon": 0.001, "center": true, "scale": false, "beta_initializer": {"class_name": "Zeros", "config": {}}, "gamma_initializer": {"class_name": "Ones", "config": {}}, "moving_mean_initializer": {"class_name": "Zeros", "config": {}}, "moving_variance_initializer": {"class_name": "Ones", "config": {}}, "beta_regularizer": null, "gamma_regularizer": null, "beta_constraint": null, "gamma_constraint": null}, "name": "batch_normalization_852", "inbound_nodes": [[["conv2d_852", 0, 0, {}]]]}, {"class_name": "BatchNormalization", "config": {"name": "batch_normalization_855", "trainable": true, "dtype": "float32", "axis": [3], "momentum": 0.99, "epsilon": 0.001, "center": true, "scale": false, "beta_initializer": {"class_name": "Zeros", "config": {}}, "gamma_initializer": {"class_name": "Ones", "config": {}}, "moving_mean_initializer": {"class_name": "Zeros", "config": {}}, "moving_variance_initializer": {"class_name": "Ones", "config": {}}, "beta_regularizer": null, "gamma_regularizer": null, "beta_constraint": null, "gamma_constraint": null}, "name": "batch_normalization_855", "inbound_nodes": [[["conv2d_855", 0, 0, {}]]]}, {"class_name": "Activation", "config": {"name": "activation_852", "trainable": true, "dtype": "float32", "activation": "relu"}, "name": "activation_852", "inbound_nodes": [[["batch_normalization_852", 0, 0, {}]]]}, {"class_name": "Activation", "config": {"name": "activation_855", "trainable": true, "dtype": "float32", "activation": "relu"}, "name": "activation_855", "inbound_nodes": [[["batch_normalization_855", 0, 0, {}]]]}, {"class_name": "AveragePooling2D", "config": {"name": "average_pooling2d_81", "trainable": true, "dtype": "float32", "pool_size": [3, 3], "padding": "same", "strides": [1, 1], "data_format": "channels_last"}, "name": "average_pooling2d_81", "inbound_nodes": [[["max_pooling2d_37", 0, 0, {}]]]}, {"class_name": "Conv2D", "config": {"name": "conv2d_851", "trainable": true, "dtype": "float32", "filters": 64, "kernel_size": [1, 1], "strides": [1, 1], "padding": "same", "data_format": "channels_last", "dilation_rate": [1, 1], "groups": 1, "activation": "linear", "use_bias": false, "kernel_initializer": {"class_name": "GlorotUniform", "config": {"seed": null}}, "bias_initializer": {"class_name": "Zeros", "config": {}}, "kernel_regularizer": null, "bias_regularizer": null, "activity_regularizer": null, "kernel_constraint": null, "bias_constraint": null}, "name": "conv2d_851", "inbound_nodes": [[["max_pooling2d_37", 0, 0, {}]]]}, {"class_name": "Conv2D", "config": {"name": "conv2d_853", "trainable": true, "dtype": "float32", "filters": 64, "kernel_size": [5, 5], "strides": [1, 1], "padding": "same", "data_format": "channels_last", "dilation_rate": [1, 1], "groups": 1, "activation": "linear", "use_bias": false, "kernel_initializer": {"class_name": "GlorotUniform", "config": {"seed": null}}, "bias_initializer": {"class_name": "Zeros", "config": {}}, "kernel_regularizer": null, "bias_regularizer": null, "activity_regularizer": null, "kernel_constraint": null, "bias_constraint": null}, "name": "conv2d_853", "inbound_nodes": [[["activation_852", 0, 0, {}]]]}, {"class_name": "Conv2D", "config": {"name": "conv2d_856", "trainable": true, "dtype": "float32", "filters": 96, "kernel_size": [3, 3], "strides": [1, 1], "padding": "same", "data_format": "channels_last", "dilation_rate": [1, 1], "groups": 1, "activation": "linear", "use_bias": false, "kernel_initializer": {"class_name": "GlorotUniform", "config": {"seed": null}}, "bias_initializer": {"class_name": "Zeros", "config": {}}, "kernel_regularizer": null, "bias_regularizer": null, "activity_regularizer": null, "kernel_constraint": null, "bias_constraint": null}, "name": "conv2d_856", "inbound_nodes": [[["activation_855", 0, 0, {}]]]}, {"class_name": "Conv2D", "config": {"name": "conv2d_857", "trainable": true, "dtype": "float32", "filters": 32, "kernel_size": [1, 1], "strides": [1, 1], "padding": "same", "data_format": "channels_last", "dilation_rate": [1, 1], "groups": 1, "activation": "linear", "use_bias": false, "kernel_initializer": {"class_name": "GlorotUniform", "config": {"seed": null}}, "bias_initializer": {"class_name": "Zeros", "config": {}}, "kernel_regularizer": null, "bias_regularizer": null, "activity_regularizer": null, "kernel_constraint": null, "bias_constraint": null}, "name": "conv2d_857", "inbound_nodes": [[["average_pooling2d_81", 0, 0, {}]]]}, {"class_name": "BatchNormalization", "config": {"name": "batch_normalization_851", "trainable": true, "dtype": "float32", "axis": [3], "momentum": 0.99, "epsilon": 0.001, "center": true, "scale": false, "beta_initializer": {"class_name": "Zeros", "config": {}}, "gamma_initializer": {"class_name": "Ones", "config": {}}, "moving_mean_initializer": {"class_name": "Zeros", "config": {}}, "moving_variance_initializer": {"class_name": "Ones", "config": {}}, "beta_regularizer": null, "gamma_regularizer": null, "beta_constraint": null, "gamma_constraint": null}, "name": "batch_normalization_851", "inbound_nodes": [[["conv2d_851", 0, 0, {}]]]}, {"class_name": "BatchNormalization", "config": {"name": "batch_normalization_853", "trainable": true, "dtype": "float32", "axis": [3], "momentum": 0.99, "epsilon": 0.001, "center": true, "scale": false, "beta_initializer": {"class_name": "Zeros", "config": {}}, "gamma_initializer": {"class_name": "Ones", "config": {}}, "moving_mean_initializer": {"class_name": "Zeros", "config": {}}, "moving_variance_initializer": {"class_name": "Ones", "config": {}}, "beta_regularizer": null, "gamma_regularizer": null, "beta_constraint": null, "gamma_constraint": null}, "name": "batch_normalization_853", "inbound_nodes": [[["conv2d_853", 0, 0, {}]]]}, {"class_name": "BatchNormalization", "config": {"name": "batch_normalization_856", "trainable": true, "dtype": "float32", "axis": [3], "momentum": 0.99, "epsilon": 0.001, "center": true, "scale": false, "beta_initializer": {"class_name": "Zeros", "config": {}}, "gamma_initializer": {"class_name": "Ones", "config": {}}, "moving_mean_initializer": {"class_name": "Zeros", "config": {}}, "moving_variance_initializer": {"class_name": "Ones", "config": {}}, "beta_regularizer": null, "gamma_regularizer": null, "beta_constraint": null, "gamma_constraint": null}, "name": "batch_normalization_856", "inbound_nodes": [[["conv2d_856", 0, 0, {}]]]}, {"class_name": "BatchNormalization", "config": {"name": "batch_normalization_857", "trainable": true, "dtype": "float32", "axis": [3], "momentum": 0.99, "epsilon": 0.001, "center": true, "scale": false, "beta_initializer": {"class_name": "Zeros", "config": {}}, "gamma_initializer": {"class_name": "Ones", "config": {}}, "moving_mean_initializer": {"class_name": "Zeros", "config": {}}, "moving_variance_initializer": {"class_name": "Ones", "config": {}}, "beta_regularizer": null, "gamma_regularizer": null, "beta_constraint": null, "gamma_constraint": null}, "name": "batch_normalization_857", "inbound_nodes": [[["conv2d_857", 0, 0, {}]]]}, {"class_name": "Activation", "config": {"name": "activation_851", "trainable": true, "dtype": "float32", "activation": "relu"}, "name": "activation_851", "inbound_nodes": [[["batch_normalization_851", 0, 0, {}]]]}, {"class_name": "Activation", "config": {"name": "activation_853", "trainable": true, "dtype": "float32", "activation": "relu"}, "name": "activation_853", "inbound_nodes": [[["batch_normalization_853", 0, 0, {}]]]}, {"class_name": "Activation", "config": {"name": "activation_856", "trainable": true, "dtype": "float32", "activation": "relu"}, "name": "activation_856", "inbound_nodes": [[["batch_normalization_856", 0, 0, {}]]]}, {"class_name": "Activation", "config": {"name": "activation_857", "trainable": true, "dtype": "float32", "activation": "relu"}, "name": "activation_857", "inbound_nodes": [[["batch_normalization_857", 0, 0, {}]]]}, {"class_name": "Concatenate", "config": {"name": "mixed0", "trainable": true, "dtype": "float32", "axis": 3}, "name": "mixed0", "inbound_nodes": [[["activation_851", 0, 0, {}], ["activation_853", 0, 0, {}], ["activation_856", 0, 0, {}], ["activation_857", 0, 0, {}]]]}, {"class_name": "Conv2D", "config": {"name": "conv2d_861", "trainable": true, "dtype": "float32", "filters": 64, "kernel_size": [1, 1], "strides": [1, 1], "padding": "same", "data_format": "channels_last", "dilation_rate": [1, 1], "groups": 1, "activation": "linear", "use_bias": false, "kernel_initializer": {"class_name": "GlorotUniform", "config": {"seed": null}}, "bias_initializer": {"class_name": "Zeros", "config": {}}, "kernel_regularizer": null, "bias_regularizer": null, "activity_regularizer": null, "kernel_constraint": null, "bias_constraint": null}, "name": "conv2d_861", "inbound_nodes": [[["mixed0", 0, 0, {}]]]}, {"class_name": "BatchNormalization", "config": {"name": "batch_normalization_861", "trainable": true, "dtype": "float32", "axis": [3], "momentum": 0.99, "epsilon": 0.001, "center": true, "scale": false, "beta_initializer": {"class_name": "Zeros", "config": {}}, "gamma_initializer": {"class_name": "Ones", "config": {}}, "moving_mean_initializer": {"class_name": "Zeros", "config": {}}, "moving_variance_initializer": {"class_name": "Ones", "config": {}}, "beta_regularizer": null, "gamma_regularizer": null, "beta_constraint": null, "gamma_constraint": null}, "name": "batch_normalization_861", "inbound_nodes": [[["conv2d_861", 0, 0, {}]]]}, {"class_name": "Activation", "config": {"name": "activation_861", "trainable": true, "dtype": "float32", "activation": "relu"}, "name": "activation_861", "inbound_nodes": [[["batch_normalization_861", 0, 0, {}]]]}, {"class_name": "Conv2D", "config": {"name": "conv2d_859", "trainable": true, "dtype": "float32", "filters": 48, "kernel_size": [1, 1], "strides": [1, 1], "padding": "same", "data_format": "channels_last", "dilation_rate": [1, 1], "groups": 1, "activation": "linear", "use_bias": false, "kernel_initializer": {"class_name": "GlorotUniform", "config": {"seed": null}}, "bias_initializer": {"class_name": "Zeros", "config": {}}, "kernel_regularizer": null, "bias_regularizer": null, "activity_regularizer": null, "kernel_constraint": null, "bias_constraint": null}, "name": "conv2d_859", "inbound_nodes": [[["mixed0", 0, 0, {}]]]}, {"class_name": "Conv2D", "config": {"name": "conv2d_862", "trainable": true, "dtype": "float32", "filters": 96, "kernel_size": [3, 3], "strides": [1, 1], "padding": "same", "data_format": "channels_last", "dilation_rate": [1, 1], "groups": 1, "activation": "linear", "use_bias": false, "kernel_initializer": {"class_name": "GlorotUniform", "config": {"seed": null}}, "bias_initializer": {"class_name": "Zeros", "config": {}}, "kernel_regularizer": null, "bias_regularizer": null, "activity_regularizer": null, "kernel_constraint": null, "bias_constraint": null}, "name": "conv2d_862", "inbound_nodes": [[["activation_861", 0, 0, {}]]]}, {"class_name": "BatchNormalization", "config": {"name": "batch_normalization_859", "trainable": true, "dtype": "float32", "axis": [3], "momentum": 0.99, "epsilon": 0.001, "center": true, "scale": false, "beta_initializer": {"class_name": "Zeros", "config": {}}, "gamma_initializer": {"class_name": "Ones", "config": {}}, "moving_mean_initializer": {"class_name": "Zeros", "config": {}}, "moving_variance_initializer": {"class_name": "Ones", "config": {}}, "beta_regularizer": null, "gamma_regularizer": null, "beta_constraint": null, "gamma_constraint": null}, "name": "batch_normalization_859", "inbound_nodes": [[["conv2d_859", 0, 0, {}]]]}, {"class_name": "BatchNormalization", "config": {"name": "batch_normalization_862", "trainable": true, "dtype": "float32", "axis": [3], "momentum": 0.99, "epsilon": 0.001, "center": true, "scale": false, "beta_initializer": {"class_name": "Zeros", "config": {}}, "gamma_initializer": {"class_name": "Ones", "config": {}}, "moving_mean_initializer": {"class_name": "Zeros", "config": {}}, "moving_variance_initializer": {"class_name": "Ones", "config": {}}, "beta_regularizer": null, "gamma_regularizer": null, "beta_constraint": null, "gamma_constraint": null}, "name": "batch_normalization_862", "inbound_nodes": [[["conv2d_862", 0, 0, {}]]]}, {"class_name": "Activation", "config": {"name": "activation_859", "trainable": true, "dtype": "float32", "activation": "relu"}, "name": "activation_859", "inbound_nodes": [[["batch_normalization_859", 0, 0, {}]]]}, {"class_name": "Activation", "config": {"name": "activation_862", "trainable": true, "dtype": "float32", "activation": "relu"}, "name": "activation_862", "inbound_nodes": [[["batch_normalization_862", 0, 0, {}]]]}, {"class_name": "AveragePooling2D", "config": {"name": "average_pooling2d_82", "trainable": true, "dtype": "float32", "pool_size": [3, 3], "padding": "same", "strides": [1, 1], "data_format": "channels_last"}, "name": "average_pooling2d_82", "inbound_nodes": [[["mixed0", 0, 0, {}]]]}, {"class_name": "Conv2D", "config": {"name": "conv2d_858", "trainable": true, "dtype": "float32", "filters": 64, "kernel_size": [1, 1], "strides": [1, 1], "padding": "same", "data_format": "channels_last", "dilation_rate": [1, 1], "groups": 1, "activation": "linear", "use_bias": false, "kernel_initializer": {"class_name": "GlorotUniform", "config": {"seed": null}}, "bias_initializer": {"class_name": "Zeros", "config": {}}, "kernel_regularizer": null, "bias_regularizer": null, "activity_regularizer": null, "kernel_constraint": null, "bias_constraint": null}, "name": "conv2d_858", "inbound_nodes": [[["mixed0", 0, 0, {}]]]}, {"class_name": "Conv2D", "config": {"name": "conv2d_860", "trainable": true, "dtype": "float32", "filters": 64, "kernel_size": [5, 5], "strides": [1, 1], "padding": "same", "data_format": "channels_last", "dilation_rate": [1, 1], "groups": 1, "activation": "linear", "use_bias": false, "kernel_initializer": {"class_name": "GlorotUniform", "config": {"seed": null}}, "bias_initializer": {"class_name": "Zeros", "config": {}}, "kernel_regularizer": null, "bias_regularizer": null, "activity_regularizer": null, "kernel_constraint": null, "bias_constraint": null}, "name": "conv2d_860", "inbound_nodes": [[["activation_859", 0, 0, {}]]]}, {"class_name": "Conv2D", "config": {"name": "conv2d_863", "trainable": true, "dtype": "float32", "filters": 96, "kernel_size": [3, 3], "strides": [1, 1], "padding": "same", "data_format": "channels_last", "dilation_rate": [1, 1], "groups": 1, "activation": "linear", "use_bias": false, "kernel_initializer": {"class_name": "GlorotUniform", "config": {"seed": null}}, "bias_initializer": {"class_name": "Zeros", "config": {}}, "kernel_regularizer": null, "bias_regularizer": null, "activity_regularizer": null, "kernel_constraint": null, "bias_constraint": null}, "name": "conv2d_863", "inbound_nodes": [[["activation_862", 0, 0, {}]]]}, {"class_name": "Conv2D", "config": {"name": "conv2d_864", "trainable": true, "dtype": "float32", "filters": 64, "kernel_size": [1, 1], "strides": [1, 1], "padding": "same", "data_format": "channels_last", "dilation_rate": [1, 1], "groups": 1, "activation": "linear", "use_bias": false, "kernel_initializer": {"class_name": "GlorotUniform", "config": {"seed": null}}, "bias_initializer": {"class_name": "Zeros", "config": {}}, "kernel_regularizer": null, "bias_regularizer": null, "activity_regularizer": null, "kernel_constraint": null, "bias_constraint": null}, "name": "conv2d_864", "inbound_nodes": [[["average_pooling2d_82", 0, 0, {}]]]}, {"class_name": "BatchNormalization", "config": {"name": "batch_normalization_858", "trainable": true, "dtype": "float32", "axis": [3], "momentum": 0.99, "epsilon": 0.001, "center": true, "scale": false, "beta_initializer": {"class_name": "Zeros", "config": {}}, "gamma_initializer": {"class_name": "Ones", "config": {}}, "moving_mean_initializer": {"class_name": "Zeros", "config": {}}, "moving_variance_initializer": {"class_name": "Ones", "config": {}}, "beta_regularizer": null, "gamma_regularizer": null, "beta_constraint": null, "gamma_constraint": null}, "name": "batch_normalization_858", "inbound_nodes": [[["conv2d_858", 0, 0, {}]]]}, {"class_name": "BatchNormalization", "config": {"name": "batch_normalization_860", "trainable": true, "dtype": "float32", "axis": [3], "momentum": 0.99, "epsilon": 0.001, "center": true, "scale": false, "beta_initializer": {"class_name": "Zeros", "config": {}}, "gamma_initializer": {"class_name": "Ones", "config": {}}, "moving_mean_initializer": {"class_name": "Zeros", "config": {}}, "moving_variance_initializer": {"class_name": "Ones", "config": {}}, "beta_regularizer": null, "gamma_regularizer": null, "beta_constraint": null, "gamma_constraint": null}, "name": "batch_normalization_860", "inbound_nodes": [[["conv2d_860", 0, 0, {}]]]}, {"class_name": "BatchNormalization", "config": {"name": "batch_normalization_863", "trainable": true, "dtype": "float32", "axis": [3], "momentum": 0.99, "epsilon": 0.001, "center": true, "scale": false, "beta_initializer": {"class_name": "Zeros", "config": {}}, "gamma_initializer": {"class_name": "Ones", "config": {}}, "moving_mean_initializer": {"class_name": "Zeros", "config": {}}, "moving_variance_initializer": {"class_name": "Ones", "config": {}}, "beta_regularizer": null, "gamma_regularizer": null, "beta_constraint": null, "gamma_constraint": null}, "name": "batch_normalization_863", "inbound_nodes": [[["conv2d_863", 0, 0, {}]]]}, {"class_name": "BatchNormalization", "config": {"name": "batch_normalization_864", "trainable": true, "dtype": "float32", "axis": [3], "momentum": 0.99, "epsilon": 0.001, "center": true, "scale": false, "beta_initializer": {"class_name": "Zeros", "config": {}}, "gamma_initializer": {"class_name": "Ones", "config": {}}, "moving_mean_initializer": {"class_name": "Zeros", "config": {}}, "moving_variance_initializer": {"class_name": "Ones", "config": {}}, "beta_regularizer": null, "gamma_regularizer": null, "beta_constraint": null, "gamma_constraint": null}, "name": "batch_normalization_864", "inbound_nodes": [[["conv2d_864", 0, 0, {}]]]}, {"class_name": "Activation", "config": {"name": "activation_858", "trainable": true, "dtype": "float32", "activation": "relu"}, "name": "activation_858", "inbound_nodes": [[["batch_normalization_858", 0, 0, {}]]]}, {"class_name": "Activation", "config": {"name": "activation_860", "trainable": true, "dtype": "float32", "activation": "relu"}, "name": "activation_860", "inbound_nodes": [[["batch_normalization_860", 0, 0, {}]]]}, {"class_name": "Activation", "config": {"name": "activation_863", "trainable": true, "dtype": "float32", "activation": "relu"}, "name": "activation_863", "inbound_nodes": [[["batch_normalization_863", 0, 0, {}]]]}, {"class_name": "Activation", "config": {"name": "activation_864", "trainable": true, "dtype": "float32", "activation": "relu"}, "name": "activation_864", "inbound_nodes": [[["batch_normalization_864", 0, 0, {}]]]}, {"class_name": "Concatenate", "config": {"name": "mixed1", "trainable": true, "dtype": "float32", "axis": 3}, "name": "mixed1", "inbound_nodes": [[["activation_858", 0, 0, {}], ["activation_860", 0, 0, {}], ["activation_863", 0, 0, {}], ["activation_864", 0, 0, {}]]]}, {"class_name": "Conv2D", "config": {"name": "conv2d_868", "trainable": true, "dtype": "float32", "filters": 64, "kernel_size": [1, 1], "strides": [1, 1], "padding": "same", "data_format": "channels_last", "dilation_rate": [1, 1], "groups": 1, "activation": "linear", "use_bias": false, "kernel_initializer": {"class_name": "GlorotUniform", "config": {"seed": null}}, "bias_initializer": {"class_name": "Zeros", "config": {}}, "kernel_regularizer": null, "bias_regularizer": null, "activity_regularizer": null, "kernel_constraint": null, "bias_constraint": null}, "name": "conv2d_868", "inbound_nodes": [[["mixed1", 0, 0, {}]]]}, {"class_name": "BatchNormalization", "config": {"name": "batch_normalization_868", "trainable": true, "dtype": "float32", "axis": [3], "momentum": 0.99, "epsilon": 0.001, "center": true, "scale": false, "beta_initializer": {"class_name": "Zeros", "config": {}}, "gamma_initializer": {"class_name": "Ones", "config": {}}, "moving_mean_initializer": {"class_name": "Zeros", "config": {}}, "moving_variance_initializer": {"class_name": "Ones", "config": {}}, "beta_regularizer": null, "gamma_regularizer": null, "beta_constraint": null, "gamma_constraint": null}, "name": "batch_normalization_868", "inbound_nodes": [[["conv2d_868", 0, 0, {}]]]}, {"class_name": "Activation", "config": {"name": "activation_868", "trainable": true, "dtype": "float32", "activation": "relu"}, "name": "activation_868", "inbound_nodes": [[["batch_normalization_868", 0, 0, {}]]]}, {"class_name": "Conv2D", "config": {"name": "conv2d_866", "trainable": true, "dtype": "float32", "filters": 48, "kernel_size": [1, 1], "strides": [1, 1], "padding": "same", "data_format": "channels_last", "dilation_rate": [1, 1], "groups": 1, "activation": "linear", "use_bias": false, "kernel_initializer": {"class_name": "GlorotUniform", "config": {"seed": null}}, "bias_initializer": {"class_name": "Zeros", "config": {}}, "kernel_regularizer": null, "bias_regularizer": null, "activity_regularizer": null, "kernel_constraint": null, "bias_constraint": null}, "name": "conv2d_866", "inbound_nodes": [[["mixed1", 0, 0, {}]]]}, {"class_name": "Conv2D", "config": {"name": "conv2d_869", "trainable": true, "dtype": "float32", "filters": 96, "kernel_size": [3, 3], "strides": [1, 1], "padding": "same", "data_format": "channels_last", "dilation_rate": [1, 1], "groups": 1, "activation": "linear", "use_bias": false, "kernel_initializer": {"class_name": "GlorotUniform", "config": {"seed": null}}, "bias_initializer": {"class_name": "Zeros", "config": {}}, "kernel_regularizer": null, "bias_regularizer": null, "activity_regularizer": null, "kernel_constraint": null, "bias_constraint": null}, "name": "conv2d_869", "inbound_nodes": [[["activation_868", 0, 0, {}]]]}, {"class_name": "BatchNormalization", "config": {"name": "batch_normalization_866", "trainable": true, "dtype": "float32", "axis": [3], "momentum": 0.99, "epsilon": 0.001, "center": true, "scale": false, "beta_initializer": {"class_name": "Zeros", "config": {}}, "gamma_initializer": {"class_name": "Ones", "config": {}}, "moving_mean_initializer": {"class_name": "Zeros", "config": {}}, "moving_variance_initializer": {"class_name": "Ones", "config": {}}, "beta_regularizer": null, "gamma_regularizer": null, "beta_constraint": null, "gamma_constraint": null}, "name": "batch_normalization_866", "inbound_nodes": [[["conv2d_866", 0, 0, {}]]]}, {"class_name": "BatchNormalization", "config": {"name": "batch_normalization_869", "trainable": true, "dtype": "float32", "axis": [3], "momentum": 0.99, "epsilon": 0.001, "center": true, "scale": false, "beta_initializer": {"class_name": "Zeros", "config": {}}, "gamma_initializer": {"class_name": "Ones", "config": {}}, "moving_mean_initializer": {"class_name": "Zeros", "config": {}}, "moving_variance_initializer": {"class_name": "Ones", "config": {}}, "beta_regularizer": null, "gamma_regularizer": null, "beta_constraint": null, "gamma_constraint": null}, "name": "batch_normalization_869", "inbound_nodes": [[["conv2d_869", 0, 0, {}]]]}, {"class_name": "Activation", "config": {"name": "activation_866", "trainable": true, "dtype": "float32", "activation": "relu"}, "name": "activation_866", "inbound_nodes": [[["batch_normalization_866", 0, 0, {}]]]}, {"class_name": "Activation", "config": {"name": "activation_869", "trainable": true, "dtype": "float32", "activation": "relu"}, "name": "activation_869", "inbound_nodes": [[["batch_normalization_869", 0, 0, {}]]]}, {"class_name": "AveragePooling2D", "config": {"name": "average_pooling2d_83", "trainable": true, "dtype": "float32", "pool_size": [3, 3], "padding": "same", "strides": [1, 1], "data_format": "channels_last"}, "name": "average_pooling2d_83", "inbound_nodes": [[["mixed1", 0, 0, {}]]]}, {"class_name": "Conv2D", "config": {"name": "conv2d_865", "trainable": true, "dtype": "float32", "filters": 64, "kernel_size": [1, 1], "strides": [1, 1], "padding": "same", "data_format": "channels_last", "dilation_rate": [1, 1], "groups": 1, "activation": "linear", "use_bias": false, "kernel_initializer": {"class_name": "GlorotUniform", "config": {"seed": null}}, "bias_initializer": {"class_name": "Zeros", "config": {}}, "kernel_regularizer": null, "bias_regularizer": null, "activity_regularizer": null, "kernel_constraint": null, "bias_constraint": null}, "name": "conv2d_865", "inbound_nodes": [[["mixed1", 0, 0, {}]]]}, {"class_name": "Conv2D", "config": {"name": "conv2d_867", "trainable": true, "dtype": "float32", "filters": 64, "kernel_size": [5, 5], "strides": [1, 1], "padding": "same", "data_format": "channels_last", "dilation_rate": [1, 1], "groups": 1, "activation": "linear", "use_bias": false, "kernel_initializer": {"class_name": "GlorotUniform", "config": {"seed": null}}, "bias_initializer": {"class_name": "Zeros", "config": {}}, "kernel_regularizer": null, "bias_regularizer": null, "activity_regularizer": null, "kernel_constraint": null, "bias_constraint": null}, "name": "conv2d_867", "inbound_nodes": [[["activation_866", 0, 0, {}]]]}, {"class_name": "Conv2D", "config": {"name": "conv2d_870", "trainable": true, "dtype": "float32", "filters": 96, "kernel_size": [3, 3], "strides": [1, 1], "padding": "same", "data_format": "channels_last", "dilation_rate": [1, 1], "groups": 1, "activation": "linear", "use_bias": false, "kernel_initializer": {"class_name": "GlorotUniform", "config": {"seed": null}}, "bias_initializer": {"class_name": "Zeros", "config": {}}, "kernel_regularizer": null, "bias_regularizer": null, "activity_regularizer": null, "kernel_constraint": null, "bias_constraint": null}, "name": "conv2d_870", "inbound_nodes": [[["activation_869", 0, 0, {}]]]}, {"class_name": "Conv2D", "config": {"name": "conv2d_871", "trainable": true, "dtype": "float32", "filters": 64, "kernel_size": [1, 1], "strides": [1, 1], "padding": "same", "data_format": "channels_last", "dilation_rate": [1, 1], "groups": 1, "activation": "linear", "use_bias": false, "kernel_initializer": {"class_name": "GlorotUniform", "config": {"seed": null}}, "bias_initializer": {"class_name": "Zeros", "config": {}}, "kernel_regularizer": null, "bias_regularizer": null, "activity_regularizer": null, "kernel_constraint": null, "bias_constraint": null}, "name": "conv2d_871", "inbound_nodes": [[["average_pooling2d_83", 0, 0, {}]]]}, {"class_name": "BatchNormalization", "config": {"name": "batch_normalization_865", "trainable": true, "dtype": "float32", "axis": [3], "momentum": 0.99, "epsilon": 0.001, "center": true, "scale": false, "beta_initializer": {"class_name": "Zeros", "config": {}}, "gamma_initializer": {"class_name": "Ones", "config": {}}, "moving_mean_initializer": {"class_name": "Zeros", "config": {}}, "moving_variance_initializer": {"class_name": "Ones", "config": {}}, "beta_regularizer": null, "gamma_regularizer": null, "beta_constraint": null, "gamma_constraint": null}, "name": "batch_normalization_865", "inbound_nodes": [[["conv2d_865", 0, 0, {}]]]}, {"class_name": "BatchNormalization", "config": {"name": "batch_normalization_867", "trainable": true, "dtype": "float32", "axis": [3], "momentum": 0.99, "epsilon": 0.001, "center": true, "scale": false, "beta_initializer": {"class_name": "Zeros", "config": {}}, "gamma_initializer": {"class_name": "Ones", "config": {}}, "moving_mean_initializer": {"class_name": "Zeros", "config": {}}, "moving_variance_initializer": {"class_name": "Ones", "config": {}}, "beta_regularizer": null, "gamma_regularizer": null, "beta_constraint": null, "gamma_constraint": null}, "name": "batch_normalization_867", "inbound_nodes": [[["conv2d_867", 0, 0, {}]]]}, {"class_name": "BatchNormalization", "config": {"name": "batch_normalization_870", "trainable": true, "dtype": "float32", "axis": [3], "momentum": 0.99, "epsilon": 0.001, "center": true, "scale": false, "beta_initializer": {"class_name": "Zeros", "config": {}}, "gamma_initializer": {"class_name": "Ones", "config": {}}, "moving_mean_initializer": {"class_name": "Zeros", "config": {}}, "moving_variance_initializer": {"class_name": "Ones", "config": {}}, "beta_regularizer": null, "gamma_regularizer": null, "beta_constraint": null, "gamma_constraint": null}, "name": "batch_normalization_870", "inbound_nodes": [[["conv2d_870", 0, 0, {}]]]}, {"class_name": "BatchNormalization", "config": {"name": "batch_normalization_871", "trainable": true, "dtype": "float32", "axis": [3], "momentum": 0.99, "epsilon": 0.001, "center": true, "scale": false, "beta_initializer": {"class_name": "Zeros", "config": {}}, "gamma_initializer": {"class_name": "Ones", "config": {}}, "moving_mean_initializer": {"class_name": "Zeros", "config": {}}, "moving_variance_initializer": {"class_name": "Ones", "config": {}}, "beta_regularizer": null, "gamma_regularizer": null, "beta_constraint": null, "gamma_constraint": null}, "name": "batch_normalization_871", "inbound_nodes": [[["conv2d_871", 0, 0, {}]]]}, {"class_name": "Activation", "config": {"name": "activation_865", "trainable": true, "dtype": "float32", "activation": "relu"}, "name": "activation_865", "inbound_nodes": [[["batch_normalization_865", 0, 0, {}]]]}, {"class_name": "Activation", "config": {"name": "activation_867", "trainable": true, "dtype": "float32", "activation": "relu"}, "name": "activation_867", "inbound_nodes": [[["batch_normalization_867", 0, 0, {}]]]}, {"class_name": "Activation", "config": {"name": "activation_870", "trainable": true, "dtype": "float32", "activation": "relu"}, "name": "activation_870", "inbound_nodes": [[["batch_normalization_870", 0, 0, {}]]]}, {"class_name": "Activation", "config": {"name": "activation_871", "trainable": true, "dtype": "float32", "activation": "relu"}, "name": "activation_871", "inbound_nodes": [[["batch_normalization_871", 0, 0, {}]]]}, {"class_name": "Concatenate", "config": {"name": "mixed2", "trainable": true, "dtype": "float32", "axis": 3}, "name": "mixed2", "inbound_nodes": [[["activation_865", 0, 0, {}], ["activation_867", 0, 0, {}], ["activation_870", 0, 0, {}], ["activation_871", 0, 0, {}]]]}, {"class_name": "Conv2D", "config": {"name": "conv2d_873", "trainable": true, "dtype": "float32", "filters": 64, "kernel_size": [1, 1], "strides": [1, 1], "padding": "same", "data_format": "channels_last", "dilation_rate": [1, 1], "groups": 1, "activation": "linear", "use_bias": false, "kernel_initializer": {"class_name": "GlorotUniform", "config": {"seed": null}}, "bias_initializer": {"class_name": "Zeros", "config": {}}, "kernel_regularizer": null, "bias_regularizer": null, "activity_regularizer": null, "kernel_constraint": null, "bias_constraint": null}, "name": "conv2d_873", "inbound_nodes": [[["mixed2", 0, 0, {}]]]}, {"class_name": "BatchNormalization", "config": {"name": "batch_normalization_873", "trainable": true, "dtype": "float32", "axis": [3], "momentum": 0.99, "epsilon": 0.001, "center": true, "scale": false, "beta_initializer": {"class_name": "Zeros", "config": {}}, "gamma_initializer": {"class_name": "Ones", "config": {}}, "moving_mean_initializer": {"class_name": "Zeros", "config": {}}, "moving_variance_initializer": {"class_name": "Ones", "config": {}}, "beta_regularizer": null, "gamma_regularizer": null, "beta_constraint": null, "gamma_constraint": null}, "name": "batch_normalization_873", "inbound_nodes": [[["conv2d_873", 0, 0, {}]]]}, {"class_name": "Activation", "config": {"name": "activation_873", "trainable": true, "dtype": "float32", "activation": "relu"}, "name": "activation_873", "inbound_nodes": [[["batch_normalization_873", 0, 0, {}]]]}, {"class_name": "Conv2D", "config": {"name": "conv2d_874", "trainable": true, "dtype": "float32", "filters": 96, "kernel_size": [3, 3], "strides": [1, 1], "padding": "same", "data_format": "channels_last", "dilation_rate": [1, 1], "groups": 1, "activation": "linear", "use_bias": false, "kernel_initializer": {"class_name": "GlorotUniform", "config": {"seed": null}}, "bias_initializer": {"class_name": "Zeros", "config": {}}, "kernel_regularizer": null, "bias_regularizer": null, "activity_regularizer": null, "kernel_constraint": null, "bias_constraint": null}, "name": "conv2d_874", "inbound_nodes": [[["activation_873", 0, 0, {}]]]}, {"class_name": "BatchNormalization", "config": {"name": "batch_normalization_874", "trainable": true, "dtype": "float32", "axis": [3], "momentum": 0.99, "epsilon": 0.001, "center": true, "scale": false, "beta_initializer": {"class_name": "Zeros", "config": {}}, "gamma_initializer": {"class_name": "Ones", "config": {}}, "moving_mean_initializer": {"class_name": "Zeros", "config": {}}, "moving_variance_initializer": {"class_name": "Ones", "config": {}}, "beta_regularizer": null, "gamma_regularizer": null, "beta_constraint": null, "gamma_constraint": null}, "name": "batch_normalization_874", "inbound_nodes": [[["conv2d_874", 0, 0, {}]]]}, {"class_name": "Activation", "config": {"name": "activation_874", "trainable": true, "dtype": "float32", "activation": "relu"}, "name": "activation_874", "inbound_nodes": [[["batch_normalization_874", 0, 0, {}]]]}, {"class_name": "Conv2D", "config": {"name": "conv2d_872", "trainable": true, "dtype": "float32", "filters": 384, "kernel_size": [3, 3], "strides": [2, 2], "padding": "valid", "data_format": "channels_last", "dilation_rate": [1, 1], "groups": 1, "activation": "linear", "use_bias": false, "kernel_initializer": {"class_name": "GlorotUniform", "config": {"seed": null}}, "bias_initializer": {"class_name": "Zeros", "config": {}}, "kernel_regularizer": null, "bias_regularizer": null, "activity_regularizer": null, "kernel_constraint": null, "bias_constraint": null}, "name": "conv2d_872", "inbound_nodes": [[["mixed2", 0, 0, {}]]]}, {"class_name": "Conv2D", "config": {"name": "conv2d_875", "trainable": true, "dtype": "float32", "filters": 96, "kernel_size": [3, 3], "strides": [2, 2], "padding": "valid", "data_format": "channels_last", "dilation_rate": [1, 1], "groups": 1, "activation": "linear", "use_bias": false, "kernel_initializer": {"class_name": "GlorotUniform", "config": {"seed": null}}, "bias_initializer": {"class_name": "Zeros", "config": {}}, "kernel_regularizer": null, "bias_regularizer": null, "activity_regularizer": null, "kernel_constraint": null, "bias_constraint": null}, "name": "conv2d_875", "inbound_nodes": [[["activation_874", 0, 0, {}]]]}, {"class_name": "BatchNormalization", "config": {"name": "batch_normalization_872", "trainable": true, "dtype": "float32", "axis": [3], "momentum": 0.99, "epsilon": 0.001, "center": true, "scale": false, "beta_initializer": {"class_name": "Zeros", "config": {}}, "gamma_initializer": {"class_name": "Ones", "config": {}}, "moving_mean_initializer": {"class_name": "Zeros", "config": {}}, "moving_variance_initializer": {"class_name": "Ones", "config": {}}, "beta_regularizer": null, "gamma_regularizer": null, "beta_constraint": null, "gamma_constraint": null}, "name": "batch_normalization_872", "inbound_nodes": [[["conv2d_872", 0, 0, {}]]]}, {"class_name": "BatchNormalization", "config": {"name": "batch_normalization_875", "trainable": true, "dtype": "float32", "axis": [3], "momentum": 0.99, "epsilon": 0.001, "center": true, "scale": false, "beta_initializer": {"class_name": "Zeros", "config": {}}, "gamma_initializer": {"class_name": "Ones", "config": {}}, "moving_mean_initializer": {"class_name": "Zeros", "config": {}}, "moving_variance_initializer": {"class_name": "Ones", "config": {}}, "beta_regularizer": null, "gamma_regularizer": null, "beta_constraint": null, "gamma_constraint": null}, "name": "batch_normalization_875", "inbound_nodes": [[["conv2d_875", 0, 0, {}]]]}, {"class_name": "Activation", "config": {"name": "activation_872", "trainable": true, "dtype": "float32", "activation": "relu"}, "name": "activation_872", "inbound_nodes": [[["batch_normalization_872", 0, 0, {}]]]}, {"class_name": "Activation", "config": {"name": "activation_875", "trainable": true, "dtype": "float32", "activation": "relu"}, "name": "activation_875", "inbound_nodes": [[["batch_normalization_875", 0, 0, {}]]]}, {"class_name": "MaxPooling2D", "config": {"name": "max_pooling2d_38", "trainable": true, "dtype": "float32", "pool_size": [3, 3], "padding": "valid", "strides": [2, 2], "data_format": "channels_last"}, "name": "max_pooling2d_38", "inbound_nodes": [[["mixed2", 0, 0, {}]]]}, {"class_name": "Concatenate", "config": {"name": "mixed3", "trainable": true, "dtype": "float32", "axis": 3}, "name": "mixed3", "inbound_nodes": [[["activation_872", 0, 0, {}], ["activation_875", 0, 0, {}], ["max_pooling2d_38", 0, 0, {}]]]}, {"class_name": "Conv2D", "config": {"name": "conv2d_880", "trainable": true, "dtype": "float32", "filters": 128, "kernel_size": [1, 1], "strides": [1, 1], "padding": "same", "data_format": "channels_last", "dilation_rate": [1, 1], "groups": 1, "activation": "linear", "use_bias": false, "kernel_initializer": {"class_name": "GlorotUniform", "config": {"seed": null}}, "bias_initializer": {"class_name": "Zeros", "config": {}}, "kernel_regularizer": null, "bias_regularizer": null, "activity_regularizer": null, "kernel_constraint": null, "bias_constraint": null}, "name": "conv2d_880", "inbound_nodes": [[["mixed3", 0, 0, {}]]]}, {"class_name": "BatchNormalization", "config": {"name": "batch_normalization_880", "trainable": true, "dtype": "float32", "axis": [3], "momentum": 0.99, "epsilon": 0.001, "center": true, "scale": false, "beta_initializer": {"class_name": "Zeros", "config": {}}, "gamma_initializer": {"class_name": "Ones", "config": {}}, "moving_mean_initializer": {"class_name": "Zeros", "config": {}}, "moving_variance_initializer": {"class_name": "Ones", "config": {}}, "beta_regularizer": null, "gamma_regularizer": null, "beta_constraint": null, "gamma_constraint": null}, "name": "batch_normalization_880", "inbound_nodes": [[["conv2d_880", 0, 0, {}]]]}, {"class_name": "Activation", "config": {"name": "activation_880", "trainable": true, "dtype": "float32", "activation": "relu"}, "name": "activation_880", "inbound_nodes": [[["batch_normalization_880", 0, 0, {}]]]}, {"class_name": "Conv2D", "config": {"name": "conv2d_881", "trainable": true, "dtype": "float32", "filters": 128, "kernel_size": [7, 1], "strides": [1, 1], "padding": "same", "data_format": "channels_last", "dilation_rate": [1, 1], "groups": 1, "activation": "linear", "use_bias": false, "kernel_initializer": {"class_name": "GlorotUniform", "config": {"seed": null}}, "bias_initializer": {"class_name": "Zeros", "config": {}}, "kernel_regularizer": null, "bias_regularizer": null, "activity_regularizer": null, "kernel_constraint": null, "bias_constraint": null}, "name": "conv2d_881", "inbound_nodes": [[["activation_880", 0, 0, {}]]]}, {"class_name": "BatchNormalization", "config": {"name": "batch_normalization_881", "trainable": true, "dtype": "float32", "axis": [3], "momentum": 0.99, "epsilon": 0.001, "center": true, "scale": false, "beta_initializer": {"class_name": "Zeros", "config": {}}, "gamma_initializer": {"class_name": "Ones", "config": {}}, "moving_mean_initializer": {"class_name": "Zeros", "config": {}}, "moving_variance_initializer": {"class_name": "Ones", "config": {}}, "beta_regularizer": null, "gamma_regularizer": null, "beta_constraint": null, "gamma_constraint": null}, "name": "batch_normalization_881", "inbound_nodes": [[["conv2d_881", 0, 0, {}]]]}, {"class_name": "Activation", "config": {"name": "activation_881", "trainable": true, "dtype": "float32", "activation": "relu"}, "name": "activation_881", "inbound_nodes": [[["batch_normalization_881", 0, 0, {}]]]}, {"class_name": "Conv2D", "config": {"name": "conv2d_877", "trainable": true, "dtype": "float32", "filters": 128, "kernel_size": [1, 1], "strides": [1, 1], "padding": "same", "data_format": "channels_last", "dilation_rate": [1, 1], "groups": 1, "activation": "linear", "use_bias": false, "kernel_initializer": {"class_name": "GlorotUniform", "config": {"seed": null}}, "bias_initializer": {"class_name": "Zeros", "config": {}}, "kernel_regularizer": null, "bias_regularizer": null, "activity_regularizer": null, "kernel_constraint": null, "bias_constraint": null}, "name": "conv2d_877", "inbound_nodes": [[["mixed3", 0, 0, {}]]]}, {"class_name": "Conv2D", "config": {"name": "conv2d_882", "trainable": true, "dtype": "float32", "filters": 128, "kernel_size": [1, 7], "strides": [1, 1], "padding": "same", "data_format": "channels_last", "dilation_rate": [1, 1], "groups": 1, "activation": "linear", "use_bias": false, "kernel_initializer": {"class_name": "GlorotUniform", "config": {"seed": null}}, "bias_initializer": {"class_name": "Zeros", "config": {}}, "kernel_regularizer": null, "bias_regularizer": null, "activity_regularizer": null, "kernel_constraint": null, "bias_constraint": null}, "name": "conv2d_882", "inbound_nodes": [[["activation_881", 0, 0, {}]]]}, {"class_name": "BatchNormalization", "config": {"name": "batch_normalization_877", "trainable": true, "dtype": "float32", "axis": [3], "momentum": 0.99, "epsilon": 0.001, "center": true, "scale": false, "beta_initializer": {"class_name": "Zeros", "config": {}}, "gamma_initializer": {"class_name": "Ones", "config": {}}, "moving_mean_initializer": {"class_name": "Zeros", "config": {}}, "moving_variance_initializer": {"class_name": "Ones", "config": {}}, "beta_regularizer": null, "gamma_regularizer": null, "beta_constraint": null, "gamma_constraint": null}, "name": "batch_normalization_877", "inbound_nodes": [[["conv2d_877", 0, 0, {}]]]}, {"class_name": "BatchNormalization", "config": {"name": "batch_normalization_882", "trainable": true, "dtype": "float32", "axis": [3], "momentum": 0.99, "epsilon": 0.001, "center": true, "scale": false, "beta_initializer": {"class_name": "Zeros", "config": {}}, "gamma_initializer": {"class_name": "Ones", "config": {}}, "moving_mean_initializer": {"class_name": "Zeros", "config": {}}, "moving_variance_initializer": {"class_name": "Ones", "config": {}}, "beta_regularizer": null, "gamma_regularizer": null, "beta_constraint": null, "gamma_constraint": null}, "name": "batch_normalization_882", "inbound_nodes": [[["conv2d_882", 0, 0, {}]]]}, {"class_name": "Activation", "config": {"name": "activation_877", "trainable": true, "dtype": "float32", "activation": "relu"}, "name": "activation_877", "inbound_nodes": [[["batch_normalization_877", 0, 0, {}]]]}, {"class_name": "Activation", "config": {"name": "activation_882", "trainable": true, "dtype": "float32", "activation": "relu"}, "name": "activation_882", "inbound_nodes": [[["batch_normalization_882", 0, 0, {}]]]}, {"class_name": "Conv2D", "config": {"name": "conv2d_878", "trainable": true, "dtype": "float32", "filters": 128, "kernel_size": [1, 7], "strides": [1, 1], "padding": "same", "data_format": "channels_last", "dilation_rate": [1, 1], "groups": 1, "activation": "linear", "use_bias": false, "kernel_initializer": {"class_name": "GlorotUniform", "config": {"seed": null}}, "bias_initializer": {"class_name": "Zeros", "config": {}}, "kernel_regularizer": null, "bias_regularizer": null, "activity_regularizer": null, "kernel_constraint": null, "bias_constraint": null}, "name": "conv2d_878", "inbound_nodes": [[["activation_877", 0, 0, {}]]]}, {"class_name": "Conv2D", "config": {"name": "conv2d_883", "trainable": true, "dtype": "float32", "filters": 128, "kernel_size": [7, 1], "strides": [1, 1], "padding": "same", "data_format": "channels_last", "dilation_rate": [1, 1], "groups": 1, "activation": "linear", "use_bias": false, "kernel_initializer": {"class_name": "GlorotUniform", "config": {"seed": null}}, "bias_initializer": {"class_name": "Zeros", "config": {}}, "kernel_regularizer": null, "bias_regularizer": null, "activity_regularizer": null, "kernel_constraint": null, "bias_constraint": null}, "name": "conv2d_883", "inbound_nodes": [[["activation_882", 0, 0, {}]]]}, {"class_name": "BatchNormalization", "config": {"name": "batch_normalization_878", "trainable": true, "dtype": "float32", "axis": [3], "momentum": 0.99, "epsilon": 0.001, "center": true, "scale": false, "beta_initializer": {"class_name": "Zeros", "config": {}}, "gamma_initializer": {"class_name": "Ones", "config": {}}, "moving_mean_initializer": {"class_name": "Zeros", "config": {}}, "moving_variance_initializer": {"class_name": "Ones", "config": {}}, "beta_regularizer": null, "gamma_regularizer": null, "beta_constraint": null, "gamma_constraint": null}, "name": "batch_normalization_878", "inbound_nodes": [[["conv2d_878", 0, 0, {}]]]}, {"class_name": "BatchNormalization", "config": {"name": "batch_normalization_883", "trainable": true, "dtype": "float32", "axis": [3], "momentum": 0.99, "epsilon": 0.001, "center": true, "scale": false, "beta_initializer": {"class_name": "Zeros", "config": {}}, "gamma_initializer": {"class_name": "Ones", "config": {}}, "moving_mean_initializer": {"class_name": "Zeros", "config": {}}, "moving_variance_initializer": {"class_name": "Ones", "config": {}}, "beta_regularizer": null, "gamma_regularizer": null, "beta_constraint": null, "gamma_constraint": null}, "name": "batch_normalization_883", "inbound_nodes": [[["conv2d_883", 0, 0, {}]]]}, {"class_name": "Activation", "config": {"name": "activation_878", "trainable": true, "dtype": "float32", "activation": "relu"}, "name": "activation_878", "inbound_nodes": [[["batch_normalization_878", 0, 0, {}]]]}, {"class_name": "Activation", "config": {"name": "activation_883", "trainable": true, "dtype": "float32", "activation": "relu"}, "name": "activation_883", "inbound_nodes": [[["batch_normalization_883", 0, 0, {}]]]}, {"class_name": "AveragePooling2D", "config": {"name": "average_pooling2d_84", "trainable": true, "dtype": "float32", "pool_size": [3, 3], "padding": "same", "strides": [1, 1], "data_format": "channels_last"}, "name": "average_pooling2d_84", "inbound_nodes": [[["mixed3", 0, 0, {}]]]}, {"class_name": "Conv2D", "config": {"name": "conv2d_876", "trainable": true, "dtype": "float32", "filters": 192, "kernel_size": [1, 1], "strides": [1, 1], "padding": "same", "data_format": "channels_last", "dilation_rate": [1, 1], "groups": 1, "activation": "linear", "use_bias": false, "kernel_initializer": {"class_name": "GlorotUniform", "config": {"seed": null}}, "bias_initializer": {"class_name": "Zeros", "config": {}}, "kernel_regularizer": null, "bias_regularizer": null, "activity_regularizer": null, "kernel_constraint": null, "bias_constraint": null}, "name": "conv2d_876", "inbound_nodes": [[["mixed3", 0, 0, {}]]]}, {"class_name": "Conv2D", "config": {"name": "conv2d_879", "trainable": true, "dtype": "float32", "filters": 192, "kernel_size": [7, 1], "strides": [1, 1], "padding": "same", "data_format": "channels_last", "dilation_rate": [1, 1], "groups": 1, "activation": "linear", "use_bias": false, "kernel_initializer": {"class_name": "GlorotUniform", "config": {"seed": null}}, "bias_initializer": {"class_name": "Zeros", "config": {}}, "kernel_regularizer": null, "bias_regularizer": null, "activity_regularizer": null, "kernel_constraint": null, "bias_constraint": null}, "name": "conv2d_879", "inbound_nodes": [[["activation_878", 0, 0, {}]]]}, {"class_name": "Conv2D", "config": {"name": "conv2d_884", "trainable": true, "dtype": "float32", "filters": 192, "kernel_size": [1, 7], "strides": [1, 1], "padding": "same", "data_format": "channels_last", "dilation_rate": [1, 1], "groups": 1, "activation": "linear", "use_bias": false, "kernel_initializer": {"class_name": "GlorotUniform", "config": {"seed": null}}, "bias_initializer": {"class_name": "Zeros", "config": {}}, "kernel_regularizer": null, "bias_regularizer": null, "activity_regularizer": null, "kernel_constraint": null, "bias_constraint": null}, "name": "conv2d_884", "inbound_nodes": [[["activation_883", 0, 0, {}]]]}, {"class_name": "Conv2D", "config": {"name": "conv2d_885", "trainable": true, "dtype": "float32", "filters": 192, "kernel_size": [1, 1], "strides": [1, 1], "padding": "same", "data_format": "channels_last", "dilation_rate": [1, 1], "groups": 1, "activation": "linear", "use_bias": false, "kernel_initializer": {"class_name": "GlorotUniform", "config": {"seed": null}}, "bias_initializer": {"class_name": "Zeros", "config": {}}, "kernel_regularizer": null, "bias_regularizer": null, "activity_regularizer": null, "kernel_constraint": null, "bias_constraint": null}, "name": "conv2d_885", "inbound_nodes": [[["average_pooling2d_84", 0, 0, {}]]]}, {"class_name": "BatchNormalization", "config": {"name": "batch_normalization_876", "trainable": true, "dtype": "float32", "axis": [3], "momentum": 0.99, "epsilon": 0.001, "center": true, "scale": false, "beta_initializer": {"class_name": "Zeros", "config": {}}, "gamma_initializer": {"class_name": "Ones", "config": {}}, "moving_mean_initializer": {"class_name": "Zeros", "config": {}}, "moving_variance_initializer": {"class_name": "Ones", "config": {}}, "beta_regularizer": null, "gamma_regularizer": null, "beta_constraint": null, "gamma_constraint": null}, "name": "batch_normalization_876", "inbound_nodes": [[["conv2d_876", 0, 0, {}]]]}, {"class_name": "BatchNormalization", "config": {"name": "batch_normalization_879", "trainable": true, "dtype": "float32", "axis": [3], "momentum": 0.99, "epsilon": 0.001, "center": true, "scale": false, "beta_initializer": {"class_name": "Zeros", "config": {}}, "gamma_initializer": {"class_name": "Ones", "config": {}}, "moving_mean_initializer": {"class_name": "Zeros", "config": {}}, "moving_variance_initializer": {"class_name": "Ones", "config": {}}, "beta_regularizer": null, "gamma_regularizer": null, "beta_constraint": null, "gamma_constraint": null}, "name": "batch_normalization_879", "inbound_nodes": [[["conv2d_879", 0, 0, {}]]]}, {"class_name": "BatchNormalization", "config": {"name": "batch_normalization_884", "trainable": true, "dtype": "float32", "axis": [3], "momentum": 0.99, "epsilon": 0.001, "center": true, "scale": false, "beta_initializer": {"class_name": "Zeros", "config": {}}, "gamma_initializer": {"class_name": "Ones", "config": {}}, "moving_mean_initializer": {"class_name": "Zeros", "config": {}}, "moving_variance_initializer": {"class_name": "Ones", "config": {}}, "beta_regularizer": null, "gamma_regularizer": null, "beta_constraint": null, "gamma_constraint": null}, "name": "batch_normalization_884", "inbound_nodes": [[["conv2d_884", 0, 0, {}]]]}, {"class_name": "BatchNormalization", "config": {"name": "batch_normalization_885", "trainable": true, "dtype": "float32", "axis": [3], "momentum": 0.99, "epsilon": 0.001, "center": true, "scale": false, "beta_initializer": {"class_name": "Zeros", "config": {}}, "gamma_initializer": {"class_name": "Ones", "config": {}}, "moving_mean_initializer": {"class_name": "Zeros", "config": {}}, "moving_variance_initializer": {"class_name": "Ones", "config": {}}, "beta_regularizer": null, "gamma_regularizer": null, "beta_constraint": null, "gamma_constraint": null}, "name": "batch_normalization_885", "inbound_nodes": [[["conv2d_885", 0, 0, {}]]]}, {"class_name": "Activation", "config": {"name": "activation_876", "trainable": true, "dtype": "float32", "activation": "relu"}, "name": "activation_876", "inbound_nodes": [[["batch_normalization_876", 0, 0, {}]]]}, {"class_name": "Activation", "config": {"name": "activation_879", "trainable": true, "dtype": "float32", "activation": "relu"}, "name": "activation_879", "inbound_nodes": [[["batch_normalization_879", 0, 0, {}]]]}, {"class_name": "Activation", "config": {"name": "activation_884", "trainable": true, "dtype": "float32", "activation": "relu"}, "name": "activation_884", "inbound_nodes": [[["batch_normalization_884", 0, 0, {}]]]}, {"class_name": "Activation", "config": {"name": "activation_885", "trainable": true, "dtype": "float32", "activation": "relu"}, "name": "activation_885", "inbound_nodes": [[["batch_normalization_885", 0, 0, {}]]]}, {"class_name": "Concatenate", "config": {"name": "mixed4", "trainable": true, "dtype": "float32", "axis": 3}, "name": "mixed4", "inbound_nodes": [[["activation_876", 0, 0, {}], ["activation_879", 0, 0, {}], ["activation_884", 0, 0, {}], ["activation_885", 0, 0, {}]]]}, {"class_name": "Conv2D", "config": {"name": "conv2d_890", "trainable": true, "dtype": "float32", "filters": 160, "kernel_size": [1, 1], "strides": [1, 1], "padding": "same", "data_format": "channels_last", "dilation_rate": [1, 1], "groups": 1, "activation": "linear", "use_bias": false, "kernel_initializer": {"class_name": "GlorotUniform", "config": {"seed": null}}, "bias_initializer": {"class_name": "Zeros", "config": {}}, "kernel_regularizer": null, "bias_regularizer": null, "activity_regularizer": null, "kernel_constraint": null, "bias_constraint": null}, "name": "conv2d_890", "inbound_nodes": [[["mixed4", 0, 0, {}]]]}, {"class_name": "BatchNormalization", "config": {"name": "batch_normalization_890", "trainable": true, "dtype": "float32", "axis": [3], "momentum": 0.99, "epsilon": 0.001, "center": true, "scale": false, "beta_initializer": {"class_name": "Zeros", "config": {}}, "gamma_initializer": {"class_name": "Ones", "config": {}}, "moving_mean_initializer": {"class_name": "Zeros", "config": {}}, "moving_variance_initializer": {"class_name": "Ones", "config": {}}, "beta_regularizer": null, "gamma_regularizer": null, "beta_constraint": null, "gamma_constraint": null}, "name": "batch_normalization_890", "inbound_nodes": [[["conv2d_890", 0, 0, {}]]]}, {"class_name": "Activation", "config": {"name": "activation_890", "trainable": true, "dtype": "float32", "activation": "relu"}, "name": "activation_890", "inbound_nodes": [[["batch_normalization_890", 0, 0, {}]]]}, {"class_name": "Conv2D", "config": {"name": "conv2d_891", "trainable": true, "dtype": "float32", "filters": 160, "kernel_size": [7, 1], "strides": [1, 1], "padding": "same", "data_format": "channels_last", "dilation_rate": [1, 1], "groups": 1, "activation": "linear", "use_bias": false, "kernel_initializer": {"class_name": "GlorotUniform", "config": {"seed": null}}, "bias_initializer": {"class_name": "Zeros", "config": {}}, "kernel_regularizer": null, "bias_regularizer": null, "activity_regularizer": null, "kernel_constraint": null, "bias_constraint": null}, "name": "conv2d_891", "inbound_nodes": [[["activation_890", 0, 0, {}]]]}, {"class_name": "BatchNormalization", "config": {"name": "batch_normalization_891", "trainable": true, "dtype": "float32", "axis": [3], "momentum": 0.99, "epsilon": 0.001, "center": true, "scale": false, "beta_initializer": {"class_name": "Zeros", "config": {}}, "gamma_initializer": {"class_name": "Ones", "config": {}}, "moving_mean_initializer": {"class_name": "Zeros", "config": {}}, "moving_variance_initializer": {"class_name": "Ones", "config": {}}, "beta_regularizer": null, "gamma_regularizer": null, "beta_constraint": null, "gamma_constraint": null}, "name": "batch_normalization_891", "inbound_nodes": [[["conv2d_891", 0, 0, {}]]]}, {"class_name": "Activation", "config": {"name": "activation_891", "trainable": true, "dtype": "float32", "activation": "relu"}, "name": "activation_891", "inbound_nodes": [[["batch_normalization_891", 0, 0, {}]]]}, {"class_name": "Conv2D", "config": {"name": "conv2d_887", "trainable": true, "dtype": "float32", "filters": 160, "kernel_size": [1, 1], "strides": [1, 1], "padding": "same", "data_format": "channels_last", "dilation_rate": [1, 1], "groups": 1, "activation": "linear", "use_bias": false, "kernel_initializer": {"class_name": "GlorotUniform", "config": {"seed": null}}, "bias_initializer": {"class_name": "Zeros", "config": {}}, "kernel_regularizer": null, "bias_regularizer": null, "activity_regularizer": null, "kernel_constraint": null, "bias_constraint": null}, "name": "conv2d_887", "inbound_nodes": [[["mixed4", 0, 0, {}]]]}, {"class_name": "Conv2D", "config": {"name": "conv2d_892", "trainable": true, "dtype": "float32", "filters": 160, "kernel_size": [1, 7], "strides": [1, 1], "padding": "same", "data_format": "channels_last", "dilation_rate": [1, 1], "groups": 1, "activation": "linear", "use_bias": false, "kernel_initializer": {"class_name": "GlorotUniform", "config": {"seed": null}}, "bias_initializer": {"class_name": "Zeros", "config": {}}, "kernel_regularizer": null, "bias_regularizer": null, "activity_regularizer": null, "kernel_constraint": null, "bias_constraint": null}, "name": "conv2d_892", "inbound_nodes": [[["activation_891", 0, 0, {}]]]}, {"class_name": "BatchNormalization", "config": {"name": "batch_normalization_887", "trainable": true, "dtype": "float32", "axis": [3], "momentum": 0.99, "epsilon": 0.001, "center": true, "scale": false, "beta_initializer": {"class_name": "Zeros", "config": {}}, "gamma_initializer": {"class_name": "Ones", "config": {}}, "moving_mean_initializer": {"class_name": "Zeros", "config": {}}, "moving_variance_initializer": {"class_name": "Ones", "config": {}}, "beta_regularizer": null, "gamma_regularizer": null, "beta_constraint": null, "gamma_constraint": null}, "name": "batch_normalization_887", "inbound_nodes": [[["conv2d_887", 0, 0, {}]]]}, {"class_name": "BatchNormalization", "config": {"name": "batch_normalization_892", "trainable": true, "dtype": "float32", "axis": [3], "momentum": 0.99, "epsilon": 0.001, "center": true, "scale": false, "beta_initializer": {"class_name": "Zeros", "config": {}}, "gamma_initializer": {"class_name": "Ones", "config": {}}, "moving_mean_initializer": {"class_name": "Zeros", "config": {}}, "moving_variance_initializer": {"class_name": "Ones", "config": {}}, "beta_regularizer": null, "gamma_regularizer": null, "beta_constraint": null, "gamma_constraint": null}, "name": "batch_normalization_892", "inbound_nodes": [[["conv2d_892", 0, 0, {}]]]}, {"class_name": "Activation", "config": {"name": "activation_887", "trainable": true, "dtype": "float32", "activation": "relu"}, "name": "activation_887", "inbound_nodes": [[["batch_normalization_887", 0, 0, {}]]]}, {"class_name": "Activation", "config": {"name": "activation_892", "trainable": true, "dtype": "float32", "activation": "relu"}, "name": "activation_892", "inbound_nodes": [[["batch_normalization_892", 0, 0, {}]]]}, {"class_name": "Conv2D", "config": {"name": "conv2d_888", "trainable": true, "dtype": "float32", "filters": 160, "kernel_size": [1, 7], "strides": [1, 1], "padding": "same", "data_format": "channels_last", "dilation_rate": [1, 1], "groups": 1, "activation": "linear", "use_bias": false, "kernel_initializer": {"class_name": "GlorotUniform", "config": {"seed": null}}, "bias_initializer": {"class_name": "Zeros", "config": {}}, "kernel_regularizer": null, "bias_regularizer": null, "activity_regularizer": null, "kernel_constraint": null, "bias_constraint": null}, "name": "conv2d_888", "inbound_nodes": [[["activation_887", 0, 0, {}]]]}, {"class_name": "Conv2D", "config": {"name": "conv2d_893", "trainable": true, "dtype": "float32", "filters": 160, "kernel_size": [7, 1], "strides": [1, 1], "padding": "same", "data_format": "channels_last", "dilation_rate": [1, 1], "groups": 1, "activation": "linear", "use_bias": false, "kernel_initializer": {"class_name": "GlorotUniform", "config": {"seed": null}}, "bias_initializer": {"class_name": "Zeros", "config": {}}, "kernel_regularizer": null, "bias_regularizer": null, "activity_regularizer": null, "kernel_constraint": null, "bias_constraint": null}, "name": "conv2d_893", "inbound_nodes": [[["activation_892", 0, 0, {}]]]}, {"class_name": "BatchNormalization", "config": {"name": "batch_normalization_888", "trainable": true, "dtype": "float32", "axis": [3], "momentum": 0.99, "epsilon": 0.001, "center": true, "scale": false, "beta_initializer": {"class_name": "Zeros", "config": {}}, "gamma_initializer": {"class_name": "Ones", "config": {}}, "moving_mean_initializer": {"class_name": "Zeros", "config": {}}, "moving_variance_initializer": {"class_name": "Ones", "config": {}}, "beta_regularizer": null, "gamma_regularizer": null, "beta_constraint": null, "gamma_constraint": null}, "name": "batch_normalization_888", "inbound_nodes": [[["conv2d_888", 0, 0, {}]]]}, {"class_name": "BatchNormalization", "config": {"name": "batch_normalization_893", "trainable": true, "dtype": "float32", "axis": [3], "momentum": 0.99, "epsilon": 0.001, "center": true, "scale": false, "beta_initializer": {"class_name": "Zeros", "config": {}}, "gamma_initializer": {"class_name": "Ones", "config": {}}, "moving_mean_initializer": {"class_name": "Zeros", "config": {}}, "moving_variance_initializer": {"class_name": "Ones", "config": {}}, "beta_regularizer": null, "gamma_regularizer": null, "beta_constraint": null, "gamma_constraint": null}, "name": "batch_normalization_893", "inbound_nodes": [[["conv2d_893", 0, 0, {}]]]}, {"class_name": "Activation", "config": {"name": "activation_888", "trainable": true, "dtype": "float32", "activation": "relu"}, "name": "activation_888", "inbound_nodes": [[["batch_normalization_888", 0, 0, {}]]]}, {"class_name": "Activation", "config": {"name": "activation_893", "trainable": true, "dtype": "float32", "activation": "relu"}, "name": "activation_893", "inbound_nodes": [[["batch_normalization_893", 0, 0, {}]]]}, {"class_name": "AveragePooling2D", "config": {"name": "average_pooling2d_85", "trainable": true, "dtype": "float32", "pool_size": [3, 3], "padding": "same", "strides": [1, 1], "data_format": "channels_last"}, "name": "average_pooling2d_85", "inbound_nodes": [[["mixed4", 0, 0, {}]]]}, {"class_name": "Conv2D", "config": {"name": "conv2d_886", "trainable": true, "dtype": "float32", "filters": 192, "kernel_size": [1, 1], "strides": [1, 1], "padding": "same", "data_format": "channels_last", "dilation_rate": [1, 1], "groups": 1, "activation": "linear", "use_bias": false, "kernel_initializer": {"class_name": "GlorotUniform", "config": {"seed": null}}, "bias_initializer": {"class_name": "Zeros", "config": {}}, "kernel_regularizer": null, "bias_regularizer": null, "activity_regularizer": null, "kernel_constraint": null, "bias_constraint": null}, "name": "conv2d_886", "inbound_nodes": [[["mixed4", 0, 0, {}]]]}, {"class_name": "Conv2D", "config": {"name": "conv2d_889", "trainable": true, "dtype": "float32", "filters": 192, "kernel_size": [7, 1], "strides": [1, 1], "padding": "same", "data_format": "channels_last", "dilation_rate": [1, 1], "groups": 1, "activation": "linear", "use_bias": false, "kernel_initializer": {"class_name": "GlorotUniform", "config": {"seed": null}}, "bias_initializer": {"class_name": "Zeros", "config": {}}, "kernel_regularizer": null, "bias_regularizer": null, "activity_regularizer": null, "kernel_constraint": null, "bias_constraint": null}, "name": "conv2d_889", "inbound_nodes": [[["activation_888", 0, 0, {}]]]}, {"class_name": "Conv2D", "config": {"name": "conv2d_894", "trainable": true, "dtype": "float32", "filters": 192, "kernel_size": [1, 7], "strides": [1, 1], "padding": "same", "data_format": "channels_last", "dilation_rate": [1, 1], "groups": 1, "activation": "linear", "use_bias": false, "kernel_initializer": {"class_name": "GlorotUniform", "config": {"seed": null}}, "bias_initializer": {"class_name": "Zeros", "config": {}}, "kernel_regularizer": null, "bias_regularizer": null, "activity_regularizer": null, "kernel_constraint": null, "bias_constraint": null}, "name": "conv2d_894", "inbound_nodes": [[["activation_893", 0, 0, {}]]]}, {"class_name": "Conv2D", "config": {"name": "conv2d_895", "trainable": true, "dtype": "float32", "filters": 192, "kernel_size": [1, 1], "strides": [1, 1], "padding": "same", "data_format": "channels_last", "dilation_rate": [1, 1], "groups": 1, "activation": "linear", "use_bias": false, "kernel_initializer": {"class_name": "GlorotUniform", "config": {"seed": null}}, "bias_initializer": {"class_name": "Zeros", "config": {}}, "kernel_regularizer": null, "bias_regularizer": null, "activity_regularizer": null, "kernel_constraint": null, "bias_constraint": null}, "name": "conv2d_895", "inbound_nodes": [[["average_pooling2d_85", 0, 0, {}]]]}, {"class_name": "BatchNormalization", "config": {"name": "batch_normalization_886", "trainable": true, "dtype": "float32", "axis": [3], "momentum": 0.99, "epsilon": 0.001, "center": true, "scale": false, "beta_initializer": {"class_name": "Zeros", "config": {}}, "gamma_initializer": {"class_name": "Ones", "config": {}}, "moving_mean_initializer": {"class_name": "Zeros", "config": {}}, "moving_variance_initializer": {"class_name": "Ones", "config": {}}, "beta_regularizer": null, "gamma_regularizer": null, "beta_constraint": null, "gamma_constraint": null}, "name": "batch_normalization_886", "inbound_nodes": [[["conv2d_886", 0, 0, {}]]]}, {"class_name": "BatchNormalization", "config": {"name": "batch_normalization_889", "trainable": true, "dtype": "float32", "axis": [3], "momentum": 0.99, "epsilon": 0.001, "center": true, "scale": false, "beta_initializer": {"class_name": "Zeros", "config": {}}, "gamma_initializer": {"class_name": "Ones", "config": {}}, "moving_mean_initializer": {"class_name": "Zeros", "config": {}}, "moving_variance_initializer": {"class_name": "Ones", "config": {}}, "beta_regularizer": null, "gamma_regularizer": null, "beta_constraint": null, "gamma_constraint": null}, "name": "batch_normalization_889", "inbound_nodes": [[["conv2d_889", 0, 0, {}]]]}, {"class_name": "BatchNormalization", "config": {"name": "batch_normalization_894", "trainable": true, "dtype": "float32", "axis": [3], "momentum": 0.99, "epsilon": 0.001, "center": true, "scale": false, "beta_initializer": {"class_name": "Zeros", "config": {}}, "gamma_initializer": {"class_name": "Ones", "config": {}}, "moving_mean_initializer": {"class_name": "Zeros", "config": {}}, "moving_variance_initializer": {"class_name": "Ones", "config": {}}, "beta_regularizer": null, "gamma_regularizer": null, "beta_constraint": null, "gamma_constraint": null}, "name": "batch_normalization_894", "inbound_nodes": [[["conv2d_894", 0, 0, {}]]]}, {"class_name": "BatchNormalization", "config": {"name": "batch_normalization_895", "trainable": true, "dtype": "float32", "axis": [3], "momentum": 0.99, "epsilon": 0.001, "center": true, "scale": false, "beta_initializer": {"class_name": "Zeros", "config": {}}, "gamma_initializer": {"class_name": "Ones", "config": {}}, "moving_mean_initializer": {"class_name": "Zeros", "config": {}}, "moving_variance_initializer": {"class_name": "Ones", "config": {}}, "beta_regularizer": null, "gamma_regularizer": null, "beta_constraint": null, "gamma_constraint": null}, "name": "batch_normalization_895", "inbound_nodes": [[["conv2d_895", 0, 0, {}]]]}, {"class_name": "Activation", "config": {"name": "activation_886", "trainable": true, "dtype": "float32", "activation": "relu"}, "name": "activation_886", "inbound_nodes": [[["batch_normalization_886", 0, 0, {}]]]}, {"class_name": "Activation", "config": {"name": "activation_889", "trainable": true, "dtype": "float32", "activation": "relu"}, "name": "activation_889", "inbound_nodes": [[["batch_normalization_889", 0, 0, {}]]]}, {"class_name": "Activation", "config": {"name": "activation_894", "trainable": true, "dtype": "float32", "activation": "relu"}, "name": "activation_894", "inbound_nodes": [[["batch_normalization_894", 0, 0, {}]]]}, {"class_name": "Activation", "config": {"name": "activation_895", "trainable": true, "dtype": "float32", "activation": "relu"}, "name": "activation_895", "inbound_nodes": [[["batch_normalization_895", 0, 0, {}]]]}, {"class_name": "Concatenate", "config": {"name": "mixed5", "trainable": true, "dtype": "float32", "axis": 3}, "name": "mixed5", "inbound_nodes": [[["activation_886", 0, 0, {}], ["activation_889", 0, 0, {}], ["activation_894", 0, 0, {}], ["activation_895", 0, 0, {}]]]}, {"class_name": "Conv2D", "config": {"name": "conv2d_900", "trainable": true, "dtype": "float32", "filters": 160, "kernel_size": [1, 1], "strides": [1, 1], "padding": "same", "data_format": "channels_last", "dilation_rate": [1, 1], "groups": 1, "activation": "linear", "use_bias": false, "kernel_initializer": {"class_name": "GlorotUniform", "config": {"seed": null}}, "bias_initializer": {"class_name": "Zeros", "config": {}}, "kernel_regularizer": null, "bias_regularizer": null, "activity_regularizer": null, "kernel_constraint": null, "bias_constraint": null}, "name": "conv2d_900", "inbound_nodes": [[["mixed5", 0, 0, {}]]]}, {"class_name": "BatchNormalization", "config": {"name": "batch_normalization_900", "trainable": true, "dtype": "float32", "axis": [3], "momentum": 0.99, "epsilon": 0.001, "center": true, "scale": false, "beta_initializer": {"class_name": "Zeros", "config": {}}, "gamma_initializer": {"class_name": "Ones", "config": {}}, "moving_mean_initializer": {"class_name": "Zeros", "config": {}}, "moving_variance_initializer": {"class_name": "Ones", "config": {}}, "beta_regularizer": null, "gamma_regularizer": null, "beta_constraint": null, "gamma_constraint": null}, "name": "batch_normalization_900", "inbound_nodes": [[["conv2d_900", 0, 0, {}]]]}, {"class_name": "Activation", "config": {"name": "activation_900", "trainable": true, "dtype": "float32", "activation": "relu"}, "name": "activation_900", "inbound_nodes": [[["batch_normalization_900", 0, 0, {}]]]}, {"class_name": "Conv2D", "config": {"name": "conv2d_901", "trainable": true, "dtype": "float32", "filters": 160, "kernel_size": [7, 1], "strides": [1, 1], "padding": "same", "data_format": "channels_last", "dilation_rate": [1, 1], "groups": 1, "activation": "linear", "use_bias": false, "kernel_initializer": {"class_name": "GlorotUniform", "config": {"seed": null}}, "bias_initializer": {"class_name": "Zeros", "config": {}}, "kernel_regularizer": null, "bias_regularizer": null, "activity_regularizer": null, "kernel_constraint": null, "bias_constraint": null}, "name": "conv2d_901", "inbound_nodes": [[["activation_900", 0, 0, {}]]]}, {"class_name": "BatchNormalization", "config": {"name": "batch_normalization_901", "trainable": true, "dtype": "float32", "axis": [3], "momentum": 0.99, "epsilon": 0.001, "center": true, "scale": false, "beta_initializer": {"class_name": "Zeros", "config": {}}, "gamma_initializer": {"class_name": "Ones", "config": {}}, "moving_mean_initializer": {"class_name": "Zeros", "config": {}}, "moving_variance_initializer": {"class_name": "Ones", "config": {}}, "beta_regularizer": null, "gamma_regularizer": null, "beta_constraint": null, "gamma_constraint": null}, "name": "batch_normalization_901", "inbound_nodes": [[["conv2d_901", 0, 0, {}]]]}, {"class_name": "Activation", "config": {"name": "activation_901", "trainable": true, "dtype": "float32", "activation": "relu"}, "name": "activation_901", "inbound_nodes": [[["batch_normalization_901", 0, 0, {}]]]}, {"class_name": "Conv2D", "config": {"name": "conv2d_897", "trainable": true, "dtype": "float32", "filters": 160, "kernel_size": [1, 1], "strides": [1, 1], "padding": "same", "data_format": "channels_last", "dilation_rate": [1, 1], "groups": 1, "activation": "linear", "use_bias": false, "kernel_initializer": {"class_name": "GlorotUniform", "config": {"seed": null}}, "bias_initializer": {"class_name": "Zeros", "config": {}}, "kernel_regularizer": null, "bias_regularizer": null, "activity_regularizer": null, "kernel_constraint": null, "bias_constraint": null}, "name": "conv2d_897", "inbound_nodes": [[["mixed5", 0, 0, {}]]]}, {"class_name": "Conv2D", "config": {"name": "conv2d_902", "trainable": true, "dtype": "float32", "filters": 160, "kernel_size": [1, 7], "strides": [1, 1], "padding": "same", "data_format": "channels_last", "dilation_rate": [1, 1], "groups": 1, "activation": "linear", "use_bias": false, "kernel_initializer": {"class_name": "GlorotUniform", "config": {"seed": null}}, "bias_initializer": {"class_name": "Zeros", "config": {}}, "kernel_regularizer": null, "bias_regularizer": null, "activity_regularizer": null, "kernel_constraint": null, "bias_constraint": null}, "name": "conv2d_902", "inbound_nodes": [[["activation_901", 0, 0, {}]]]}, {"class_name": "BatchNormalization", "config": {"name": "batch_normalization_897", "trainable": true, "dtype": "float32", "axis": [3], "momentum": 0.99, "epsilon": 0.001, "center": true, "scale": false, "beta_initializer": {"class_name": "Zeros", "config": {}}, "gamma_initializer": {"class_name": "Ones", "config": {}}, "moving_mean_initializer": {"class_name": "Zeros", "config": {}}, "moving_variance_initializer": {"class_name": "Ones", "config": {}}, "beta_regularizer": null, "gamma_regularizer": null, "beta_constraint": null, "gamma_constraint": null}, "name": "batch_normalization_897", "inbound_nodes": [[["conv2d_897", 0, 0, {}]]]}, {"class_name": "BatchNormalization", "config": {"name": "batch_normalization_902", "trainable": true, "dtype": "float32", "axis": [3], "momentum": 0.99, "epsilon": 0.001, "center": true, "scale": false, "beta_initializer": {"class_name": "Zeros", "config": {}}, "gamma_initializer": {"class_name": "Ones", "config": {}}, "moving_mean_initializer": {"class_name": "Zeros", "config": {}}, "moving_variance_initializer": {"class_name": "Ones", "config": {}}, "beta_regularizer": null, "gamma_regularizer": null, "beta_constraint": null, "gamma_constraint": null}, "name": "batch_normalization_902", "inbound_nodes": [[["conv2d_902", 0, 0, {}]]]}, {"class_name": "Activation", "config": {"name": "activation_897", "trainable": true, "dtype": "float32", "activation": "relu"}, "name": "activation_897", "inbound_nodes": [[["batch_normalization_897", 0, 0, {}]]]}, {"class_name": "Activation", "config": {"name": "activation_902", "trainable": true, "dtype": "float32", "activation": "relu"}, "name": "activation_902", "inbound_nodes": [[["batch_normalization_902", 0, 0, {}]]]}, {"class_name": "Conv2D", "config": {"name": "conv2d_898", "trainable": true, "dtype": "float32", "filters": 160, "kernel_size": [1, 7], "strides": [1, 1], "padding": "same", "data_format": "channels_last", "dilation_rate": [1, 1], "groups": 1, "activation": "linear", "use_bias": false, "kernel_initializer": {"class_name": "GlorotUniform", "config": {"seed": null}}, "bias_initializer": {"class_name": "Zeros", "config": {}}, "kernel_regularizer": null, "bias_regularizer": null, "activity_regularizer": null, "kernel_constraint": null, "bias_constraint": null}, "name": "conv2d_898", "inbound_nodes": [[["activation_897", 0, 0, {}]]]}, {"class_name": "Conv2D", "config": {"name": "conv2d_903", "trainable": true, "dtype": "float32", "filters": 160, "kernel_size": [7, 1], "strides": [1, 1], "padding": "same", "data_format": "channels_last", "dilation_rate": [1, 1], "groups": 1, "activation": "linear", "use_bias": false, "kernel_initializer": {"class_name": "GlorotUniform", "config": {"seed": null}}, "bias_initializer": {"class_name": "Zeros", "config": {}}, "kernel_regularizer": null, "bias_regularizer": null, "activity_regularizer": null, "kernel_constraint": null, "bias_constraint": null}, "name": "conv2d_903", "inbound_nodes": [[["activation_902", 0, 0, {}]]]}, {"class_name": "BatchNormalization", "config": {"name": "batch_normalization_898", "trainable": true, "dtype": "float32", "axis": [3], "momentum": 0.99, "epsilon": 0.001, "center": true, "scale": false, "beta_initializer": {"class_name": "Zeros", "config": {}}, "gamma_initializer": {"class_name": "Ones", "config": {}}, "moving_mean_initializer": {"class_name": "Zeros", "config": {}}, "moving_variance_initializer": {"class_name": "Ones", "config": {}}, "beta_regularizer": null, "gamma_regularizer": null, "beta_constraint": null, "gamma_constraint": null}, "name": "batch_normalization_898", "inbound_nodes": [[["conv2d_898", 0, 0, {}]]]}, {"class_name": "BatchNormalization", "config": {"name": "batch_normalization_903", "trainable": true, "dtype": "float32", "axis": [3], "momentum": 0.99, "epsilon": 0.001, "center": true, "scale": false, "beta_initializer": {"class_name": "Zeros", "config": {}}, "gamma_initializer": {"class_name": "Ones", "config": {}}, "moving_mean_initializer": {"class_name": "Zeros", "config": {}}, "moving_variance_initializer": {"class_name": "Ones", "config": {}}, "beta_regularizer": null, "gamma_regularizer": null, "beta_constraint": null, "gamma_constraint": null}, "name": "batch_normalization_903", "inbound_nodes": [[["conv2d_903", 0, 0, {}]]]}, {"class_name": "Activation", "config": {"name": "activation_898", "trainable": true, "dtype": "float32", "activation": "relu"}, "name": "activation_898", "inbound_nodes": [[["batch_normalization_898", 0, 0, {}]]]}, {"class_name": "Activation", "config": {"name": "activation_903", "trainable": true, "dtype": "float32", "activation": "relu"}, "name": "activation_903", "inbound_nodes": [[["batch_normalization_903", 0, 0, {}]]]}, {"class_name": "AveragePooling2D", "config": {"name": "average_pooling2d_86", "trainable": true, "dtype": "float32", "pool_size": [3, 3], "padding": "same", "strides": [1, 1], "data_format": "channels_last"}, "name": "average_pooling2d_86", "inbound_nodes": [[["mixed5", 0, 0, {}]]]}, {"class_name": "Conv2D", "config": {"name": "conv2d_896", "trainable": true, "dtype": "float32", "filters": 192, "kernel_size": [1, 1], "strides": [1, 1], "padding": "same", "data_format": "channels_last", "dilation_rate": [1, 1], "groups": 1, "activation": "linear", "use_bias": false, "kernel_initializer": {"class_name": "GlorotUniform", "config": {"seed": null}}, "bias_initializer": {"class_name": "Zeros", "config": {}}, "kernel_regularizer": null, "bias_regularizer": null, "activity_regularizer": null, "kernel_constraint": null, "bias_constraint": null}, "name": "conv2d_896", "inbound_nodes": [[["mixed5", 0, 0, {}]]]}, {"class_name": "Conv2D", "config": {"name": "conv2d_899", "trainable": true, "dtype": "float32", "filters": 192, "kernel_size": [7, 1], "strides": [1, 1], "padding": "same", "data_format": "channels_last", "dilation_rate": [1, 1], "groups": 1, "activation": "linear", "use_bias": false, "kernel_initializer": {"class_name": "GlorotUniform", "config": {"seed": null}}, "bias_initializer": {"class_name": "Zeros", "config": {}}, "kernel_regularizer": null, "bias_regularizer": null, "activity_regularizer": null, "kernel_constraint": null, "bias_constraint": null}, "name": "conv2d_899", "inbound_nodes": [[["activation_898", 0, 0, {}]]]}, {"class_name": "Conv2D", "config": {"name": "conv2d_904", "trainable": true, "dtype": "float32", "filters": 192, "kernel_size": [1, 7], "strides": [1, 1], "padding": "same", "data_format": "channels_last", "dilation_rate": [1, 1], "groups": 1, "activation": "linear", "use_bias": false, "kernel_initializer": {"class_name": "GlorotUniform", "config": {"seed": null}}, "bias_initializer": {"class_name": "Zeros", "config": {}}, "kernel_regularizer": null, "bias_regularizer": null, "activity_regularizer": null, "kernel_constraint": null, "bias_constraint": null}, "name": "conv2d_904", "inbound_nodes": [[["activation_903", 0, 0, {}]]]}, {"class_name": "Conv2D", "config": {"name": "conv2d_905", "trainable": true, "dtype": "float32", "filters": 192, "kernel_size": [1, 1], "strides": [1, 1], "padding": "same", "data_format": "channels_last", "dilation_rate": [1, 1], "groups": 1, "activation": "linear", "use_bias": false, "kernel_initializer": {"class_name": "GlorotUniform", "config": {"seed": null}}, "bias_initializer": {"class_name": "Zeros", "config": {}}, "kernel_regularizer": null, "bias_regularizer": null, "activity_regularizer": null, "kernel_constraint": null, "bias_constraint": null}, "name": "conv2d_905", "inbound_nodes": [[["average_pooling2d_86", 0, 0, {}]]]}, {"class_name": "BatchNormalization", "config": {"name": "batch_normalization_896", "trainable": true, "dtype": "float32", "axis": [3], "momentum": 0.99, "epsilon": 0.001, "center": true, "scale": false, "beta_initializer": {"class_name": "Zeros", "config": {}}, "gamma_initializer": {"class_name": "Ones", "config": {}}, "moving_mean_initializer": {"class_name": "Zeros", "config": {}}, "moving_variance_initializer": {"class_name": "Ones", "config": {}}, "beta_regularizer": null, "gamma_regularizer": null, "beta_constraint": null, "gamma_constraint": null}, "name": "batch_normalization_896", "inbound_nodes": [[["conv2d_896", 0, 0, {}]]]}, {"class_name": "BatchNormalization", "config": {"name": "batch_normalization_899", "trainable": true, "dtype": "float32", "axis": [3], "momentum": 0.99, "epsilon": 0.001, "center": true, "scale": false, "beta_initializer": {"class_name": "Zeros", "config": {}}, "gamma_initializer": {"class_name": "Ones", "config": {}}, "moving_mean_initializer": {"class_name": "Zeros", "config": {}}, "moving_variance_initializer": {"class_name": "Ones", "config": {}}, "beta_regularizer": null, "gamma_regularizer": null, "beta_constraint": null, "gamma_constraint": null}, "name": "batch_normalization_899", "inbound_nodes": [[["conv2d_899", 0, 0, {}]]]}, {"class_name": "BatchNormalization", "config": {"name": "batch_normalization_904", "trainable": true, "dtype": "float32", "axis": [3], "momentum": 0.99, "epsilon": 0.001, "center": true, "scale": false, "beta_initializer": {"class_name": "Zeros", "config": {}}, "gamma_initializer": {"class_name": "Ones", "config": {}}, "moving_mean_initializer": {"class_name": "Zeros", "config": {}}, "moving_variance_initializer": {"class_name": "Ones", "config": {}}, "beta_regularizer": null, "gamma_regularizer": null, "beta_constraint": null, "gamma_constraint": null}, "name": "batch_normalization_904", "inbound_nodes": [[["conv2d_904", 0, 0, {}]]]}, {"class_name": "BatchNormalization", "config": {"name": "batch_normalization_905", "trainable": true, "dtype": "float32", "axis": [3], "momentum": 0.99, "epsilon": 0.001, "center": true, "scale": false, "beta_initializer": {"class_name": "Zeros", "config": {}}, "gamma_initializer": {"class_name": "Ones", "config": {}}, "moving_mean_initializer": {"class_name": "Zeros", "config": {}}, "moving_variance_initializer": {"class_name": "Ones", "config": {}}, "beta_regularizer": null, "gamma_regularizer": null, "beta_constraint": null, "gamma_constraint": null}, "name": "batch_normalization_905", "inbound_nodes": [[["conv2d_905", 0, 0, {}]]]}, {"class_name": "Activation", "config": {"name": "activation_896", "trainable": true, "dtype": "float32", "activation": "relu"}, "name": "activation_896", "inbound_nodes": [[["batch_normalization_896", 0, 0, {}]]]}, {"class_name": "Activation", "config": {"name": "activation_899", "trainable": true, "dtype": "float32", "activation": "relu"}, "name": "activation_899", "inbound_nodes": [[["batch_normalization_899", 0, 0, {}]]]}, {"class_name": "Activation", "config": {"name": "activation_904", "trainable": true, "dtype": "float32", "activation": "relu"}, "name": "activation_904", "inbound_nodes": [[["batch_normalization_904", 0, 0, {}]]]}, {"class_name": "Activation", "config": {"name": "activation_905", "trainable": true, "dtype": "float32", "activation": "relu"}, "name": "activation_905", "inbound_nodes": [[["batch_normalization_905", 0, 0, {}]]]}, {"class_name": "Concatenate", "config": {"name": "mixed6", "trainable": true, "dtype": "float32", "axis": 3}, "name": "mixed6", "inbound_nodes": [[["activation_896", 0, 0, {}], ["activation_899", 0, 0, {}], ["activation_904", 0, 0, {}], ["activation_905", 0, 0, {}]]]}, {"class_name": "Conv2D", "config": {"name": "conv2d_910", "trainable": true, "dtype": "float32", "filters": 192, "kernel_size": [1, 1], "strides": [1, 1], "padding": "same", "data_format": "channels_last", "dilation_rate": [1, 1], "groups": 1, "activation": "linear", "use_bias": false, "kernel_initializer": {"class_name": "GlorotUniform", "config": {"seed": null}}, "bias_initializer": {"class_name": "Zeros", "config": {}}, "kernel_regularizer": null, "bias_regularizer": null, "activity_regularizer": null, "kernel_constraint": null, "bias_constraint": null}, "name": "conv2d_910", "inbound_nodes": [[["mixed6", 0, 0, {}]]]}, {"class_name": "BatchNormalization", "config": {"name": "batch_normalization_910", "trainable": true, "dtype": "float32", "axis": [3], "momentum": 0.99, "epsilon": 0.001, "center": true, "scale": false, "beta_initializer": {"class_name": "Zeros", "config": {}}, "gamma_initializer": {"class_name": "Ones", "config": {}}, "moving_mean_initializer": {"class_name": "Zeros", "config": {}}, "moving_variance_initializer": {"class_name": "Ones", "config": {}}, "beta_regularizer": null, "gamma_regularizer": null, "beta_constraint": null, "gamma_constraint": null}, "name": "batch_normalization_910", "inbound_nodes": [[["conv2d_910", 0, 0, {}]]]}, {"class_name": "Activation", "config": {"name": "activation_910", "trainable": true, "dtype": "float32", "activation": "relu"}, "name": "activation_910", "inbound_nodes": [[["batch_normalization_910", 0, 0, {}]]]}, {"class_name": "Conv2D", "config": {"name": "conv2d_911", "trainable": true, "dtype": "float32", "filters": 192, "kernel_size": [7, 1], "strides": [1, 1], "padding": "same", "data_format": "channels_last", "dilation_rate": [1, 1], "groups": 1, "activation": "linear", "use_bias": false, "kernel_initializer": {"class_name": "GlorotUniform", "config": {"seed": null}}, "bias_initializer": {"class_name": "Zeros", "config": {}}, "kernel_regularizer": null, "bias_regularizer": null, "activity_regularizer": null, "kernel_constraint": null, "bias_constraint": null}, "name": "conv2d_911", "inbound_nodes": [[["activation_910", 0, 0, {}]]]}, {"class_name": "BatchNormalization", "config": {"name": "batch_normalization_911", "trainable": true, "dtype": "float32", "axis": [3], "momentum": 0.99, "epsilon": 0.001, "center": true, "scale": false, "beta_initializer": {"class_name": "Zeros", "config": {}}, "gamma_initializer": {"class_name": "Ones", "config": {}}, "moving_mean_initializer": {"class_name": "Zeros", "config": {}}, "moving_variance_initializer": {"class_name": "Ones", "config": {}}, "beta_regularizer": null, "gamma_regularizer": null, "beta_constraint": null, "gamma_constraint": null}, "name": "batch_normalization_911", "inbound_nodes": [[["conv2d_911", 0, 0, {}]]]}, {"class_name": "Activation", "config": {"name": "activation_911", "trainable": true, "dtype": "float32", "activation": "relu"}, "name": "activation_911", "inbound_nodes": [[["batch_normalization_911", 0, 0, {}]]]}, {"class_name": "Conv2D", "config": {"name": "conv2d_907", "trainable": true, "dtype": "float32", "filters": 192, "kernel_size": [1, 1], "strides": [1, 1], "padding": "same", "data_format": "channels_last", "dilation_rate": [1, 1], "groups": 1, "activation": "linear", "use_bias": false, "kernel_initializer": {"class_name": "GlorotUniform", "config": {"seed": null}}, "bias_initializer": {"class_name": "Zeros", "config": {}}, "kernel_regularizer": null, "bias_regularizer": null, "activity_regularizer": null, "kernel_constraint": null, "bias_constraint": null}, "name": "conv2d_907", "inbound_nodes": [[["mixed6", 0, 0, {}]]]}, {"class_name": "Conv2D", "config": {"name": "conv2d_912", "trainable": true, "dtype": "float32", "filters": 192, "kernel_size": [1, 7], "strides": [1, 1], "padding": "same", "data_format": "channels_last", "dilation_rate": [1, 1], "groups": 1, "activation": "linear", "use_bias": false, "kernel_initializer": {"class_name": "GlorotUniform", "config": {"seed": null}}, "bias_initializer": {"class_name": "Zeros", "config": {}}, "kernel_regularizer": null, "bias_regularizer": null, "activity_regularizer": null, "kernel_constraint": null, "bias_constraint": null}, "name": "conv2d_912", "inbound_nodes": [[["activation_911", 0, 0, {}]]]}, {"class_name": "BatchNormalization", "config": {"name": "batch_normalization_907", "trainable": true, "dtype": "float32", "axis": [3], "momentum": 0.99, "epsilon": 0.001, "center": true, "scale": false, "beta_initializer": {"class_name": "Zeros", "config": {}}, "gamma_initializer": {"class_name": "Ones", "config": {}}, "moving_mean_initializer": {"class_name": "Zeros", "config": {}}, "moving_variance_initializer": {"class_name": "Ones", "config": {}}, "beta_regularizer": null, "gamma_regularizer": null, "beta_constraint": null, "gamma_constraint": null}, "name": "batch_normalization_907", "inbound_nodes": [[["conv2d_907", 0, 0, {}]]]}, {"class_name": "BatchNormalization", "config": {"name": "batch_normalization_912", "trainable": true, "dtype": "float32", "axis": [3], "momentum": 0.99, "epsilon": 0.001, "center": true, "scale": false, "beta_initializer": {"class_name": "Zeros", "config": {}}, "gamma_initializer": {"class_name": "Ones", "config": {}}, "moving_mean_initializer": {"class_name": "Zeros", "config": {}}, "moving_variance_initializer": {"class_name": "Ones", "config": {}}, "beta_regularizer": null, "gamma_regularizer": null, "beta_constraint": null, "gamma_constraint": null}, "name": "batch_normalization_912", "inbound_nodes": [[["conv2d_912", 0, 0, {}]]]}, {"class_name": "Activation", "config": {"name": "activation_907", "trainable": true, "dtype": "float32", "activation": "relu"}, "name": "activation_907", "inbound_nodes": [[["batch_normalization_907", 0, 0, {}]]]}, {"class_name": "Activation", "config": {"name": "activation_912", "trainable": true, "dtype": "float32", "activation": "relu"}, "name": "activation_912", "inbound_nodes": [[["batch_normalization_912", 0, 0, {}]]]}, {"class_name": "Conv2D", "config": {"name": "conv2d_908", "trainable": true, "dtype": "float32", "filters": 192, "kernel_size": [1, 7], "strides": [1, 1], "padding": "same", "data_format": "channels_last", "dilation_rate": [1, 1], "groups": 1, "activation": "linear", "use_bias": false, "kernel_initializer": {"class_name": "GlorotUniform", "config": {"seed": null}}, "bias_initializer": {"class_name": "Zeros", "config": {}}, "kernel_regularizer": null, "bias_regularizer": null, "activity_regularizer": null, "kernel_constraint": null, "bias_constraint": null}, "name": "conv2d_908", "inbound_nodes": [[["activation_907", 0, 0, {}]]]}, {"class_name": "Conv2D", "config": {"name": "conv2d_913", "trainable": true, "dtype": "float32", "filters": 192, "kernel_size": [7, 1], "strides": [1, 1], "padding": "same", "data_format": "channels_last", "dilation_rate": [1, 1], "groups": 1, "activation": "linear", "use_bias": false, "kernel_initializer": {"class_name": "GlorotUniform", "config": {"seed": null}}, "bias_initializer": {"class_name": "Zeros", "config": {}}, "kernel_regularizer": null, "bias_regularizer": null, "activity_regularizer": null, "kernel_constraint": null, "bias_constraint": null}, "name": "conv2d_913", "inbound_nodes": [[["activation_912", 0, 0, {}]]]}, {"class_name": "BatchNormalization", "config": {"name": "batch_normalization_908", "trainable": true, "dtype": "float32", "axis": [3], "momentum": 0.99, "epsilon": 0.001, "center": true, "scale": false, "beta_initializer": {"class_name": "Zeros", "config": {}}, "gamma_initializer": {"class_name": "Ones", "config": {}}, "moving_mean_initializer": {"class_name": "Zeros", "config": {}}, "moving_variance_initializer": {"class_name": "Ones", "config": {}}, "beta_regularizer": null, "gamma_regularizer": null, "beta_constraint": null, "gamma_constraint": null}, "name": "batch_normalization_908", "inbound_nodes": [[["conv2d_908", 0, 0, {}]]]}, {"class_name": "BatchNormalization", "config": {"name": "batch_normalization_913", "trainable": true, "dtype": "float32", "axis": [3], "momentum": 0.99, "epsilon": 0.001, "center": true, "scale": false, "beta_initializer": {"class_name": "Zeros", "config": {}}, "gamma_initializer": {"class_name": "Ones", "config": {}}, "moving_mean_initializer": {"class_name": "Zeros", "config": {}}, "moving_variance_initializer": {"class_name": "Ones", "config": {}}, "beta_regularizer": null, "gamma_regularizer": null, "beta_constraint": null, "gamma_constraint": null}, "name": "batch_normalization_913", "inbound_nodes": [[["conv2d_913", 0, 0, {}]]]}, {"class_name": "Activation", "config": {"name": "activation_908", "trainable": true, "dtype": "float32", "activation": "relu"}, "name": "activation_908", "inbound_nodes": [[["batch_normalization_908", 0, 0, {}]]]}, {"class_name": "Activation", "config": {"name": "activation_913", "trainable": true, "dtype": "float32", "activation": "relu"}, "name": "activation_913", "inbound_nodes": [[["batch_normalization_913", 0, 0, {}]]]}, {"class_name": "AveragePooling2D", "config": {"name": "average_pooling2d_87", "trainable": true, "dtype": "float32", "pool_size": [3, 3], "padding": "same", "strides": [1, 1], "data_format": "channels_last"}, "name": "average_pooling2d_87", "inbound_nodes": [[["mixed6", 0, 0, {}]]]}, {"class_name": "Conv2D", "config": {"name": "conv2d_906", "trainable": true, "dtype": "float32", "filters": 192, "kernel_size": [1, 1], "strides": [1, 1], "padding": "same", "data_format": "channels_last", "dilation_rate": [1, 1], "groups": 1, "activation": "linear", "use_bias": false, "kernel_initializer": {"class_name": "GlorotUniform", "config": {"seed": null}}, "bias_initializer": {"class_name": "Zeros", "config": {}}, "kernel_regularizer": null, "bias_regularizer": null, "activity_regularizer": null, "kernel_constraint": null, "bias_constraint": null}, "name": "conv2d_906", "inbound_nodes": [[["mixed6", 0, 0, {}]]]}, {"class_name": "Conv2D", "config": {"name": "conv2d_909", "trainable": true, "dtype": "float32", "filters": 192, "kernel_size": [7, 1], "strides": [1, 1], "padding": "same", "data_format": "channels_last", "dilation_rate": [1, 1], "groups": 1, "activation": "linear", "use_bias": false, "kernel_initializer": {"class_name": "GlorotUniform", "config": {"seed": null}}, "bias_initializer": {"class_name": "Zeros", "config": {}}, "kernel_regularizer": null, "bias_regularizer": null, "activity_regularizer": null, "kernel_constraint": null, "bias_constraint": null}, "name": "conv2d_909", "inbound_nodes": [[["activation_908", 0, 0, {}]]]}, {"class_name": "Conv2D", "config": {"name": "conv2d_914", "trainable": true, "dtype": "float32", "filters": 192, "kernel_size": [1, 7], "strides": [1, 1], "padding": "same", "data_format": "channels_last", "dilation_rate": [1, 1], "groups": 1, "activation": "linear", "use_bias": false, "kernel_initializer": {"class_name": "GlorotUniform", "config": {"seed": null}}, "bias_initializer": {"class_name": "Zeros", "config": {}}, "kernel_regularizer": null, "bias_regularizer": null, "activity_regularizer": null, "kernel_constraint": null, "bias_constraint": null}, "name": "conv2d_914", "inbound_nodes": [[["activation_913", 0, 0, {}]]]}, {"class_name": "Conv2D", "config": {"name": "conv2d_915", "trainable": true, "dtype": "float32", "filters": 192, "kernel_size": [1, 1], "strides": [1, 1], "padding": "same", "data_format": "channels_last", "dilation_rate": [1, 1], "groups": 1, "activation": "linear", "use_bias": false, "kernel_initializer": {"class_name": "GlorotUniform", "config": {"seed": null}}, "bias_initializer": {"class_name": "Zeros", "config": {}}, "kernel_regularizer": null, "bias_regularizer": null, "activity_regularizer": null, "kernel_constraint": null, "bias_constraint": null}, "name": "conv2d_915", "inbound_nodes": [[["average_pooling2d_87", 0, 0, {}]]]}, {"class_name": "BatchNormalization", "config": {"name": "batch_normalization_906", "trainable": true, "dtype": "float32", "axis": [3], "momentum": 0.99, "epsilon": 0.001, "center": true, "scale": false, "beta_initializer": {"class_name": "Zeros", "config": {}}, "gamma_initializer": {"class_name": "Ones", "config": {}}, "moving_mean_initializer": {"class_name": "Zeros", "config": {}}, "moving_variance_initializer": {"class_name": "Ones", "config": {}}, "beta_regularizer": null, "gamma_regularizer": null, "beta_constraint": null, "gamma_constraint": null}, "name": "batch_normalization_906", "inbound_nodes": [[["conv2d_906", 0, 0, {}]]]}, {"class_name": "BatchNormalization", "config": {"name": "batch_normalization_909", "trainable": true, "dtype": "float32", "axis": [3], "momentum": 0.99, "epsilon": 0.001, "center": true, "scale": false, "beta_initializer": {"class_name": "Zeros", "config": {}}, "gamma_initializer": {"class_name": "Ones", "config": {}}, "moving_mean_initializer": {"class_name": "Zeros", "config": {}}, "moving_variance_initializer": {"class_name": "Ones", "config": {}}, "beta_regularizer": null, "gamma_regularizer": null, "beta_constraint": null, "gamma_constraint": null}, "name": "batch_normalization_909", "inbound_nodes": [[["conv2d_909", 0, 0, {}]]]}, {"class_name": "BatchNormalization", "config": {"name": "batch_normalization_914", "trainable": true, "dtype": "float32", "axis": [3], "momentum": 0.99, "epsilon": 0.001, "center": true, "scale": false, "beta_initializer": {"class_name": "Zeros", "config": {}}, "gamma_initializer": {"class_name": "Ones", "config": {}}, "moving_mean_initializer": {"class_name": "Zeros", "config": {}}, "moving_variance_initializer": {"class_name": "Ones", "config": {}}, "beta_regularizer": null, "gamma_regularizer": null, "beta_constraint": null, "gamma_constraint": null}, "name": "batch_normalization_914", "inbound_nodes": [[["conv2d_914", 0, 0, {}]]]}, {"class_name": "BatchNormalization", "config": {"name": "batch_normalization_915", "trainable": true, "dtype": "float32", "axis": [3], "momentum": 0.99, "epsilon": 0.001, "center": true, "scale": false, "beta_initializer": {"class_name": "Zeros", "config": {}}, "gamma_initializer": {"class_name": "Ones", "config": {}}, "moving_mean_initializer": {"class_name": "Zeros", "config": {}}, "moving_variance_initializer": {"class_name": "Ones", "config": {}}, "beta_regularizer": null, "gamma_regularizer": null, "beta_constraint": null, "gamma_constraint": null}, "name": "batch_normalization_915", "inbound_nodes": [[["conv2d_915", 0, 0, {}]]]}, {"class_name": "Activation", "config": {"name": "activation_906", "trainable": true, "dtype": "float32", "activation": "relu"}, "name": "activation_906", "inbound_nodes": [[["batch_normalization_906", 0, 0, {}]]]}, {"class_name": "Activation", "config": {"name": "activation_909", "trainable": true, "dtype": "float32", "activation": "relu"}, "name": "activation_909", "inbound_nodes": [[["batch_normalization_909", 0, 0, {}]]]}, {"class_name": "Activation", "config": {"name": "activation_914", "trainable": true, "dtype": "float32", "activation": "relu"}, "name": "activation_914", "inbound_nodes": [[["batch_normalization_914", 0, 0, {}]]]}, {"class_name": "Activation", "config": {"name": "activation_915", "trainable": true, "dtype": "float32", "activation": "relu"}, "name": "activation_915", "inbound_nodes": [[["batch_normalization_915", 0, 0, {}]]]}, {"class_name": "Concatenate", "config": {"name": "mixed7", "trainable": true, "dtype": "float32", "axis": 3}, "name": "mixed7", "inbound_nodes": [[["activation_906", 0, 0, {}], ["activation_909", 0, 0, {}], ["activation_914", 0, 0, {}], ["activation_915", 0, 0, {}]]]}, {"class_name": "Conv2D", "config": {"name": "conv2d_918", "trainable": true, "dtype": "float32", "filters": 192, "kernel_size": [1, 1], "strides": [1, 1], "padding": "same", "data_format": "channels_last", "dilation_rate": [1, 1], "groups": 1, "activation": "linear", "use_bias": false, "kernel_initializer": {"class_name": "GlorotUniform", "config": {"seed": null}}, "bias_initializer": {"class_name": "Zeros", "config": {}}, "kernel_regularizer": null, "bias_regularizer": null, "activity_regularizer": null, "kernel_constraint": null, "bias_constraint": null}, "name": "conv2d_918", "inbound_nodes": [[["mixed7", 0, 0, {}]]]}, {"class_name": "BatchNormalization", "config": {"name": "batch_normalization_918", "trainable": true, "dtype": "float32", "axis": [3], "momentum": 0.99, "epsilon": 0.001, "center": true, "scale": false, "beta_initializer": {"class_name": "Zeros", "config": {}}, "gamma_initializer": {"class_name": "Ones", "config": {}}, "moving_mean_initializer": {"class_name": "Zeros", "config": {}}, "moving_variance_initializer": {"class_name": "Ones", "config": {}}, "beta_regularizer": null, "gamma_regularizer": null, "beta_constraint": null, "gamma_constraint": null}, "name": "batch_normalization_918", "inbound_nodes": [[["conv2d_918", 0, 0, {}]]]}, {"class_name": "Activation", "config": {"name": "activation_918", "trainable": true, "dtype": "float32", "activation": "relu"}, "name": "activation_918", "inbound_nodes": [[["batch_normalization_918", 0, 0, {}]]]}, {"class_name": "Conv2D", "config": {"name": "conv2d_919", "trainable": true, "dtype": "float32", "filters": 192, "kernel_size": [1, 7], "strides": [1, 1], "padding": "same", "data_format": "channels_last", "dilation_rate": [1, 1], "groups": 1, "activation": "linear", "use_bias": false, "kernel_initializer": {"class_name": "GlorotUniform", "config": {"seed": null}}, "bias_initializer": {"class_name": "Zeros", "config": {}}, "kernel_regularizer": null, "bias_regularizer": null, "activity_regularizer": null, "kernel_constraint": null, "bias_constraint": null}, "name": "conv2d_919", "inbound_nodes": [[["activation_918", 0, 0, {}]]]}, {"class_name": "BatchNormalization", "config": {"name": "batch_normalization_919", "trainable": true, "dtype": "float32", "axis": [3], "momentum": 0.99, "epsilon": 0.001, "center": true, "scale": false, "beta_initializer": {"class_name": "Zeros", "config": {}}, "gamma_initializer": {"class_name": "Ones", "config": {}}, "moving_mean_initializer": {"class_name": "Zeros", "config": {}}, "moving_variance_initializer": {"class_name": "Ones", "config": {}}, "beta_regularizer": null, "gamma_regularizer": null, "beta_constraint": null, "gamma_constraint": null}, "name": "batch_normalization_919", "inbound_nodes": [[["conv2d_919", 0, 0, {}]]]}, {"class_name": "Activation", "config": {"name": "activation_919", "trainable": true, "dtype": "float32", "activation": "relu"}, "name": "activation_919", "inbound_nodes": [[["batch_normalization_919", 0, 0, {}]]]}, {"class_name": "Conv2D", "config": {"name": "conv2d_916", "trainable": true, "dtype": "float32", "filters": 192, "kernel_size": [1, 1], "strides": [1, 1], "padding": "same", "data_format": "channels_last", "dilation_rate": [1, 1], "groups": 1, "activation": "linear", "use_bias": false, "kernel_initializer": {"class_name": "GlorotUniform", "config": {"seed": null}}, "bias_initializer": {"class_name": "Zeros", "config": {}}, "kernel_regularizer": null, "bias_regularizer": null, "activity_regularizer": null, "kernel_constraint": null, "bias_constraint": null}, "name": "conv2d_916", "inbound_nodes": [[["mixed7", 0, 0, {}]]]}, {"class_name": "Conv2D", "config": {"name": "conv2d_920", "trainable": true, "dtype": "float32", "filters": 192, "kernel_size": [7, 1], "strides": [1, 1], "padding": "same", "data_format": "channels_last", "dilation_rate": [1, 1], "groups": 1, "activation": "linear", "use_bias": false, "kernel_initializer": {"class_name": "GlorotUniform", "config": {"seed": null}}, "bias_initializer": {"class_name": "Zeros", "config": {}}, "kernel_regularizer": null, "bias_regularizer": null, "activity_regularizer": null, "kernel_constraint": null, "bias_constraint": null}, "name": "conv2d_920", "inbound_nodes": [[["activation_919", 0, 0, {}]]]}, {"class_name": "BatchNormalization", "config": {"name": "batch_normalization_916", "trainable": true, "dtype": "float32", "axis": [3], "momentum": 0.99, "epsilon": 0.001, "center": true, "scale": false, "beta_initializer": {"class_name": "Zeros", "config": {}}, "gamma_initializer": {"class_name": "Ones", "config": {}}, "moving_mean_initializer": {"class_name": "Zeros", "config": {}}, "moving_variance_initializer": {"class_name": "Ones", "config": {}}, "beta_regularizer": null, "gamma_regularizer": null, "beta_constraint": null, "gamma_constraint": null}, "name": "batch_normalization_916", "inbound_nodes": [[["conv2d_916", 0, 0, {}]]]}, {"class_name": "BatchNormalization", "config": {"name": "batch_normalization_920", "trainable": true, "dtype": "float32", "axis": [3], "momentum": 0.99, "epsilon": 0.001, "center": true, "scale": false, "beta_initializer": {"class_name": "Zeros", "config": {}}, "gamma_initializer": {"class_name": "Ones", "config": {}}, "moving_mean_initializer": {"class_name": "Zeros", "config": {}}, "moving_variance_initializer": {"class_name": "Ones", "config": {}}, "beta_regularizer": null, "gamma_regularizer": null, "beta_constraint": null, "gamma_constraint": null}, "name": "batch_normalization_920", "inbound_nodes": [[["conv2d_920", 0, 0, {}]]]}, {"class_name": "Activation", "config": {"name": "activation_916", "trainable": true, "dtype": "float32", "activation": "relu"}, "name": "activation_916", "inbound_nodes": [[["batch_normalization_916", 0, 0, {}]]]}, {"class_name": "Activation", "config": {"name": "activation_920", "trainable": true, "dtype": "float32", "activation": "relu"}, "name": "activation_920", "inbound_nodes": [[["batch_normalization_920", 0, 0, {}]]]}, {"class_name": "Conv2D", "config": {"name": "conv2d_917", "trainable": true, "dtype": "float32", "filters": 320, "kernel_size": [3, 3], "strides": [2, 2], "padding": "valid", "data_format": "channels_last", "dilation_rate": [1, 1], "groups": 1, "activation": "linear", "use_bias": false, "kernel_initializer": {"class_name": "GlorotUniform", "config": {"seed": null}}, "bias_initializer": {"class_name": "Zeros", "config": {}}, "kernel_regularizer": null, "bias_regularizer": null, "activity_regularizer": null, "kernel_constraint": null, "bias_constraint": null}, "name": "conv2d_917", "inbound_nodes": [[["activation_916", 0, 0, {}]]]}, {"class_name": "Conv2D", "config": {"name": "conv2d_921", "trainable": true, "dtype": "float32", "filters": 192, "kernel_size": [3, 3], "strides": [2, 2], "padding": "valid", "data_format": "channels_last", "dilation_rate": [1, 1], "groups": 1, "activation": "linear", "use_bias": false, "kernel_initializer": {"class_name": "GlorotUniform", "config": {"seed": null}}, "bias_initializer": {"class_name": "Zeros", "config": {}}, "kernel_regularizer": null, "bias_regularizer": null, "activity_regularizer": null, "kernel_constraint": null, "bias_constraint": null}, "name": "conv2d_921", "inbound_nodes": [[["activation_920", 0, 0, {}]]]}, {"class_name": "BatchNormalization", "config": {"name": "batch_normalization_917", "trainable": true, "dtype": "float32", "axis": [3], "momentum": 0.99, "epsilon": 0.001, "center": true, "scale": false, "beta_initializer": {"class_name": "Zeros", "config": {}}, "gamma_initializer": {"class_name": "Ones", "config": {}}, "moving_mean_initializer": {"class_name": "Zeros", "config": {}}, "moving_variance_initializer": {"class_name": "Ones", "config": {}}, "beta_regularizer": null, "gamma_regularizer": null, "beta_constraint": null, "gamma_constraint": null}, "name": "batch_normalization_917", "inbound_nodes": [[["conv2d_917", 0, 0, {}]]]}, {"class_name": "BatchNormalization", "config": {"name": "batch_normalization_921", "trainable": true, "dtype": "float32", "axis": [3], "momentum": 0.99, "epsilon": 0.001, "center": true, "scale": false, "beta_initializer": {"class_name": "Zeros", "config": {}}, "gamma_initializer": {"class_name": "Ones", "config": {}}, "moving_mean_initializer": {"class_name": "Zeros", "config": {}}, "moving_variance_initializer": {"class_name": "Ones", "config": {}}, "beta_regularizer": null, "gamma_regularizer": null, "beta_constraint": null, "gamma_constraint": null}, "name": "batch_normalization_921", "inbound_nodes": [[["conv2d_921", 0, 0, {}]]]}, {"class_name": "Activation", "config": {"name": "activation_917", "trainable": true, "dtype": "float32", "activation": "relu"}, "name": "activation_917", "inbound_nodes": [[["batch_normalization_917", 0, 0, {}]]]}, {"class_name": "Activation", "config": {"name": "activation_921", "trainable": true, "dtype": "float32", "activation": "relu"}, "name": "activation_921", "inbound_nodes": [[["batch_normalization_921", 0, 0, {}]]]}, {"class_name": "MaxPooling2D", "config": {"name": "max_pooling2d_39", "trainable": true, "dtype": "float32", "pool_size": [3, 3], "padding": "valid", "strides": [2, 2], "data_format": "channels_last"}, "name": "max_pooling2d_39", "inbound_nodes": [[["mixed7", 0, 0, {}]]]}, {"class_name": "Concatenate", "config": {"name": "mixed8", "trainable": true, "dtype": "float32", "axis": 3}, "name": "mixed8", "inbound_nodes": [[["activation_917", 0, 0, {}], ["activation_921", 0, 0, {}], ["max_pooling2d_39", 0, 0, {}]]]}, {"class_name": "Conv2D", "config": {"name": "conv2d_926", "trainable": true, "dtype": "float32", "filters": 448, "kernel_size": [1, 1], "strides": [1, 1], "padding": "same", "data_format": "channels_last", "dilation_rate": [1, 1], "groups": 1, "activation": "linear", "use_bias": false, "kernel_initializer": {"class_name": "GlorotUniform", "config": {"seed": null}}, "bias_initializer": {"class_name": "Zeros", "config": {}}, "kernel_regularizer": null, "bias_regularizer": null, "activity_regularizer": null, "kernel_constraint": null, "bias_constraint": null}, "name": "conv2d_926", "inbound_nodes": [[["mixed8", 0, 0, {}]]]}, {"class_name": "BatchNormalization", "config": {"name": "batch_normalization_926", "trainable": true, "dtype": "float32", "axis": [3], "momentum": 0.99, "epsilon": 0.001, "center": true, "scale": false, "beta_initializer": {"class_name": "Zeros", "config": {}}, "gamma_initializer": {"class_name": "Ones", "config": {}}, "moving_mean_initializer": {"class_name": "Zeros", "config": {}}, "moving_variance_initializer": {"class_name": "Ones", "config": {}}, "beta_regularizer": null, "gamma_regularizer": null, "beta_constraint": null, "gamma_constraint": null}, "name": "batch_normalization_926", "inbound_nodes": [[["conv2d_926", 0, 0, {}]]]}, {"class_name": "Activation", "config": {"name": "activation_926", "trainable": true, "dtype": "float32", "activation": "relu"}, "name": "activation_926", "inbound_nodes": [[["batch_normalization_926", 0, 0, {}]]]}, {"class_name": "Conv2D", "config": {"name": "conv2d_923", "trainable": true, "dtype": "float32", "filters": 384, "kernel_size": [1, 1], "strides": [1, 1], "padding": "same", "data_format": "channels_last", "dilation_rate": [1, 1], "groups": 1, "activation": "linear", "use_bias": false, "kernel_initializer": {"class_name": "GlorotUniform", "config": {"seed": null}}, "bias_initializer": {"class_name": "Zeros", "config": {}}, "kernel_regularizer": null, "bias_regularizer": null, "activity_regularizer": null, "kernel_constraint": null, "bias_constraint": null}, "name": "conv2d_923", "inbound_nodes": [[["mixed8", 0, 0, {}]]]}, {"class_name": "Conv2D", "config": {"name": "conv2d_927", "trainable": true, "dtype": "float32", "filters": 384, "kernel_size": [3, 3], "strides": [1, 1], "padding": "same", "data_format": "channels_last", "dilation_rate": [1, 1], "groups": 1, "activation": "linear", "use_bias": false, "kernel_initializer": {"class_name": "GlorotUniform", "config": {"seed": null}}, "bias_initializer": {"class_name": "Zeros", "config": {}}, "kernel_regularizer": null, "bias_regularizer": null, "activity_regularizer": null, "kernel_constraint": null, "bias_constraint": null}, "name": "conv2d_927", "inbound_nodes": [[["activation_926", 0, 0, {}]]]}, {"class_name": "BatchNormalization", "config": {"name": "batch_normalization_923", "trainable": true, "dtype": "float32", "axis": [3], "momentum": 0.99, "epsilon": 0.001, "center": true, "scale": false, "beta_initializer": {"class_name": "Zeros", "config": {}}, "gamma_initializer": {"class_name": "Ones", "config": {}}, "moving_mean_initializer": {"class_name": "Zeros", "config": {}}, "moving_variance_initializer": {"class_name": "Ones", "config": {}}, "beta_regularizer": null, "gamma_regularizer": null, "beta_constraint": null, "gamma_constraint": null}, "name": "batch_normalization_923", "inbound_nodes": [[["conv2d_923", 0, 0, {}]]]}, {"class_name": "BatchNormalization", "config": {"name": "batch_normalization_927", "trainable": true, "dtype": "float32", "axis": [3], "momentum": 0.99, "epsilon": 0.001, "center": true, "scale": false, "beta_initializer": {"class_name": "Zeros", "config": {}}, "gamma_initializer": {"class_name": "Ones", "config": {}}, "moving_mean_initializer": {"class_name": "Zeros", "config": {}}, "moving_variance_initializer": {"class_name": "Ones", "config": {}}, "beta_regularizer": null, "gamma_regularizer": null, "beta_constraint": null, "gamma_constraint": null}, "name": "batch_normalization_927", "inbound_nodes": [[["conv2d_927", 0, 0, {}]]]}, {"class_name": "Activation", "config": {"name": "activation_923", "trainable": true, "dtype": "float32", "activation": "relu"}, "name": "activation_923", "inbound_nodes": [[["batch_normalization_923", 0, 0, {}]]]}, {"class_name": "Activation", "config": {"name": "activation_927", "trainable": true, "dtype": "float32", "activation": "relu"}, "name": "activation_927", "inbound_nodes": [[["batch_normalization_927", 0, 0, {}]]]}, {"class_name": "Conv2D", "config": {"name": "conv2d_924", "trainable": true, "dtype": "float32", "filters": 384, "kernel_size": [1, 3], "strides": [1, 1], "padding": "same", "data_format": "channels_last", "dilation_rate": [1, 1], "groups": 1, "activation": "linear", "use_bias": false, "kernel_initializer": {"class_name": "GlorotUniform", "config": {"seed": null}}, "bias_initializer": {"class_name": "Zeros", "config": {}}, "kernel_regularizer": null, "bias_regularizer": null, "activity_regularizer": null, "kernel_constraint": null, "bias_constraint": null}, "name": "conv2d_924", "inbound_nodes": [[["activation_923", 0, 0, {}]]]}, {"class_name": "Conv2D", "config": {"name": "conv2d_925", "trainable": true, "dtype": "float32", "filters": 384, "kernel_size": [3, 1], "strides": [1, 1], "padding": "same", "data_format": "channels_last", "dilation_rate": [1, 1], "groups": 1, "activation": "linear", "use_bias": false, "kernel_initializer": {"class_name": "GlorotUniform", "config": {"seed": null}}, "bias_initializer": {"class_name": "Zeros", "config": {}}, "kernel_regularizer": null, "bias_regularizer": null, "activity_regularizer": null, "kernel_constraint": null, "bias_constraint": null}, "name": "conv2d_925", "inbound_nodes": [[["activation_923", 0, 0, {}]]]}, {"class_name": "Conv2D", "config": {"name": "conv2d_928", "trainable": true, "dtype": "float32", "filters": 384, "kernel_size": [1, 3], "strides": [1, 1], "padding": "same", "data_format": "channels_last", "dilation_rate": [1, 1], "groups": 1, "activation": "linear", "use_bias": false, "kernel_initializer": {"class_name": "GlorotUniform", "config": {"seed": null}}, "bias_initializer": {"class_name": "Zeros", "config": {}}, "kernel_regularizer": null, "bias_regularizer": null, "activity_regularizer": null, "kernel_constraint": null, "bias_constraint": null}, "name": "conv2d_928", "inbound_nodes": [[["activation_927", 0, 0, {}]]]}, {"class_name": "Conv2D", "config": {"name": "conv2d_929", "trainable": true, "dtype": "float32", "filters": 384, "kernel_size": [3, 1], "strides": [1, 1], "padding": "same", "data_format": "channels_last", "dilation_rate": [1, 1], "groups": 1, "activation": "linear", "use_bias": false, "kernel_initializer": {"class_name": "GlorotUniform", "config": {"seed": null}}, "bias_initializer": {"class_name": "Zeros", "config": {}}, "kernel_regularizer": null, "bias_regularizer": null, "activity_regularizer": null, "kernel_constraint": null, "bias_constraint": null}, "name": "conv2d_929", "inbound_nodes": [[["activation_927", 0, 0, {}]]]}, {"class_name": "AveragePooling2D", "config": {"name": "average_pooling2d_88", "trainable": true, "dtype": "float32", "pool_size": [3, 3], "padding": "same", "strides": [1, 1], "data_format": "channels_last"}, "name": "average_pooling2d_88", "inbound_nodes": [[["mixed8", 0, 0, {}]]]}, {"class_name": "Conv2D", "config": {"name": "conv2d_922", "trainable": true, "dtype": "float32", "filters": 320, "kernel_size": [1, 1], "strides": [1, 1], "padding": "same", "data_format": "channels_last", "dilation_rate": [1, 1], "groups": 1, "activation": "linear", "use_bias": false, "kernel_initializer": {"class_name": "GlorotUniform", "config": {"seed": null}}, "bias_initializer": {"class_name": "Zeros", "config": {}}, "kernel_regularizer": null, "bias_regularizer": null, "activity_regularizer": null, "kernel_constraint": null, "bias_constraint": null}, "name": "conv2d_922", "inbound_nodes": [[["mixed8", 0, 0, {}]]]}, {"class_name": "BatchNormalization", "config": {"name": "batch_normalization_924", "trainable": true, "dtype": "float32", "axis": [3], "momentum": 0.99, "epsilon": 0.001, "center": true, "scale": false, "beta_initializer": {"class_name": "Zeros", "config": {}}, "gamma_initializer": {"class_name": "Ones", "config": {}}, "moving_mean_initializer": {"class_name": "Zeros", "config": {}}, "moving_variance_initializer": {"class_name": "Ones", "config": {}}, "beta_regularizer": null, "gamma_regularizer": null, "beta_constraint": null, "gamma_constraint": null}, "name": "batch_normalization_924", "inbound_nodes": [[["conv2d_924", 0, 0, {}]]]}, {"class_name": "BatchNormalization", "config": {"name": "batch_normalization_925", "trainable": true, "dtype": "float32", "axis": [3], "momentum": 0.99, "epsilon": 0.001, "center": true, "scale": false, "beta_initializer": {"class_name": "Zeros", "config": {}}, "gamma_initializer": {"class_name": "Ones", "config": {}}, "moving_mean_initializer": {"class_name": "Zeros", "config": {}}, "moving_variance_initializer": {"class_name": "Ones", "config": {}}, "beta_regularizer": null, "gamma_regularizer": null, "beta_constraint": null, "gamma_constraint": null}, "name": "batch_normalization_925", "inbound_nodes": [[["conv2d_925", 0, 0, {}]]]}, {"class_name": "BatchNormalization", "config": {"name": "batch_normalization_928", "trainable": true, "dtype": "float32", "axis": [3], "momentum": 0.99, "epsilon": 0.001, "center": true, "scale": false, "beta_initializer": {"class_name": "Zeros", "config": {}}, "gamma_initializer": {"class_name": "Ones", "config": {}}, "moving_mean_initializer": {"class_name": "Zeros", "config": {}}, "moving_variance_initializer": {"class_name": "Ones", "config": {}}, "beta_regularizer": null, "gamma_regularizer": null, "beta_constraint": null, "gamma_constraint": null}, "name": "batch_normalization_928", "inbound_nodes": [[["conv2d_928", 0, 0, {}]]]}, {"class_name": "BatchNormalization", "config": {"name": "batch_normalization_929", "trainable": true, "dtype": "float32", "axis": [3], "momentum": 0.99, "epsilon": 0.001, "center": true, "scale": false, "beta_initializer": {"class_name": "Zeros", "config": {}}, "gamma_initializer": {"class_name": "Ones", "config": {}}, "moving_mean_initializer": {"class_name": "Zeros", "config": {}}, "moving_variance_initializer": {"class_name": "Ones", "config": {}}, "beta_regularizer": null, "gamma_regularizer": null, "beta_constraint": null, "gamma_constraint": null}, "name": "batch_normalization_929", "inbound_nodes": [[["conv2d_929", 0, 0, {}]]]}, {"class_name": "Conv2D", "config": {"name": "conv2d_930", "trainable": true, "dtype": "float32", "filters": 192, "kernel_size": [1, 1], "strides": [1, 1], "padding": "same", "data_format": "channels_last", "dilation_rate": [1, 1], "groups": 1, "activation": "linear", "use_bias": false, "kernel_initializer": {"class_name": "GlorotUniform", "config": {"seed": null}}, "bias_initializer": {"class_name": "Zeros", "config": {}}, "kernel_regularizer": null, "bias_regularizer": null, "activity_regularizer": null, "kernel_constraint": null, "bias_constraint": null}, "name": "conv2d_930", "inbound_nodes": [[["average_pooling2d_88", 0, 0, {}]]]}, {"class_name": "BatchNormalization", "config": {"name": "batch_normalization_922", "trainable": true, "dtype": "float32", "axis": [3], "momentum": 0.99, "epsilon": 0.001, "center": true, "scale": false, "beta_initializer": {"class_name": "Zeros", "config": {}}, "gamma_initializer": {"class_name": "Ones", "config": {}}, "moving_mean_initializer": {"class_name": "Zeros", "config": {}}, "moving_variance_initializer": {"class_name": "Ones", "config": {}}, "beta_regularizer": null, "gamma_regularizer": null, "beta_constraint": null, "gamma_constraint": null}, "name": "batch_normalization_922", "inbound_nodes": [[["conv2d_922", 0, 0, {}]]]}, {"class_name": "Activation", "config": {"name": "activation_924", "trainable": true, "dtype": "float32", "activation": "relu"}, "name": "activation_924", "inbound_nodes": [[["batch_normalization_924", 0, 0, {}]]]}, {"class_name": "Activation", "config": {"name": "activation_925", "trainable": true, "dtype": "float32", "activation": "relu"}, "name": "activation_925", "inbound_nodes": [[["batch_normalization_925", 0, 0, {}]]]}, {"class_name": "Activation", "config": {"name": "activation_928", "trainable": true, "dtype": "float32", "activation": "relu"}, "name": "activation_928", "inbound_nodes": [[["batch_normalization_928", 0, 0, {}]]]}, {"class_name": "Activation", "config": {"name": "activation_929", "trainable": true, "dtype": "float32", "activation": "relu"}, "name": "activation_929", "inbound_nodes": [[["batch_normalization_929", 0, 0, {}]]]}, {"class_name": "BatchNormalization", "config": {"name": "batch_normalization_930", "trainable": true, "dtype": "float32", "axis": [3], "momentum": 0.99, "epsilon": 0.001, "center": true, "scale": false, "beta_initializer": {"class_name": "Zeros", "config": {}}, "gamma_initializer": {"class_name": "Ones", "config": {}}, "moving_mean_initializer": {"class_name": "Zeros", "config": {}}, "moving_variance_initializer": {"class_name": "Ones", "config": {}}, "beta_regularizer": null, "gamma_regularizer": null, "beta_constraint": null, "gamma_constraint": null}, "name": "batch_normalization_930", "inbound_nodes": [[["conv2d_930", 0, 0, {}]]]}, {"class_name": "Activation", "config": {"name": "activation_922", "trainable": true, "dtype": "float32", "activation": "relu"}, "name": "activation_922", "inbound_nodes": [[["batch_normalization_922", 0, 0, {}]]]}, {"class_name": "Concatenate", "config": {"name": "mixed9_0", "trainable": true, "dtype": "float32", "axis": 3}, "name": "mixed9_0", "inbound_nodes": [[["activation_924", 0, 0, {}], ["activation_925", 0, 0, {}]]]}, {"class_name": "Concatenate", "config": {"name": "concatenate_18", "trainable": true, "dtype": "float32", "axis": 3}, "name": "concatenate_18", "inbound_nodes": [[["activation_928", 0, 0, {}], ["activation_929", 0, 0, {}]]]}, {"class_name": "Activation", "config": {"name": "activation_930", "trainable": true, "dtype": "float32", "activation": "relu"}, "name": "activation_930", "inbound_nodes": [[["batch_normalization_930", 0, 0, {}]]]}, {"class_name": "Concatenate", "config": {"name": "mixed9", "trainable": true, "dtype": "float32", "axis": 3}, "name": "mixed9", "inbound_nodes": [[["activation_922", 0, 0, {}], ["mixed9_0", 0, 0, {}], ["concatenate_18", 0, 0, {}], ["activation_930", 0, 0, {}]]]}, {"class_name": "Conv2D", "config": {"name": "conv2d_935", "trainable": true, "dtype": "float32", "filters": 448, "kernel_size": [1, 1], "strides": [1, 1], "padding": "same", "data_format": "channels_last", "dilation_rate": [1, 1], "groups": 1, "activation": "linear", "use_bias": false, "kernel_initializer": {"class_name": "GlorotUniform", "config": {"seed": null}}, "bias_initializer": {"class_name": "Zeros", "config": {}}, "kernel_regularizer": null, "bias_regularizer": null, "activity_regularizer": null, "kernel_constraint": null, "bias_constraint": null}, "name": "conv2d_935", "inbound_nodes": [[["mixed9", 0, 0, {}]]]}, {"class_name": "BatchNormalization", "config": {"name": "batch_normalization_935", "trainable": true, "dtype": "float32", "axis": [3], "momentum": 0.99, "epsilon": 0.001, "center": true, "scale": false, "beta_initializer": {"class_name": "Zeros", "config": {}}, "gamma_initializer": {"class_name": "Ones", "config": {}}, "moving_mean_initializer": {"class_name": "Zeros", "config": {}}, "moving_variance_initializer": {"class_name": "Ones", "config": {}}, "beta_regularizer": null, "gamma_regularizer": null, "beta_constraint": null, "gamma_constraint": null}, "name": "batch_normalization_935", "inbound_nodes": [[["conv2d_935", 0, 0, {}]]]}, {"class_name": "Activation", "config": {"name": "activation_935", "trainable": true, "dtype": "float32", "activation": "relu"}, "name": "activation_935", "inbound_nodes": [[["batch_normalization_935", 0, 0, {}]]]}, {"class_name": "Conv2D", "config": {"name": "conv2d_932", "trainable": true, "dtype": "float32", "filters": 384, "kernel_size": [1, 1], "strides": [1, 1], "padding": "same", "data_format": "channels_last", "dilation_rate": [1, 1], "groups": 1, "activation": "linear", "use_bias": false, "kernel_initializer": {"class_name": "GlorotUniform", "config": {"seed": null}}, "bias_initializer": {"class_name": "Zeros", "config": {}}, "kernel_regularizer": null, "bias_regularizer": null, "activity_regularizer": null, "kernel_constraint": null, "bias_constraint": null}, "name": "conv2d_932", "inbound_nodes": [[["mixed9", 0, 0, {}]]]}, {"class_name": "Conv2D", "config": {"name": "conv2d_936", "trainable": true, "dtype": "float32", "filters": 384, "kernel_size": [3, 3], "strides": [1, 1], "padding": "same", "data_format": "channels_last", "dilation_rate": [1, 1], "groups": 1, "activation": "linear", "use_bias": false, "kernel_initializer": {"class_name": "GlorotUniform", "config": {"seed": null}}, "bias_initializer": {"class_name": "Zeros", "config": {}}, "kernel_regularizer": null, "bias_regularizer": null, "activity_regularizer": null, "kernel_constraint": null, "bias_constraint": null}, "name": "conv2d_936", "inbound_nodes": [[["activation_935", 0, 0, {}]]]}, {"class_name": "BatchNormalization", "config": {"name": "batch_normalization_932", "trainable": true, "dtype": "float32", "axis": [3], "momentum": 0.99, "epsilon": 0.001, "center": true, "scale": false, "beta_initializer": {"class_name": "Zeros", "config": {}}, "gamma_initializer": {"class_name": "Ones", "config": {}}, "moving_mean_initializer": {"class_name": "Zeros", "config": {}}, "moving_variance_initializer": {"class_name": "Ones", "config": {}}, "beta_regularizer": null, "gamma_regularizer": null, "beta_constraint": null, "gamma_constraint": null}, "name": "batch_normalization_932", "inbound_nodes": [[["conv2d_932", 0, 0, {}]]]}, {"class_name": "BatchNormalization", "config": {"name": "batch_normalization_936", "trainable": true, "dtype": "float32", "axis": [3], "momentum": 0.99, "epsilon": 0.001, "center": true, "scale": false, "beta_initializer": {"class_name": "Zeros", "config": {}}, "gamma_initializer": {"class_name": "Ones", "config": {}}, "moving_mean_initializer": {"class_name": "Zeros", "config": {}}, "moving_variance_initializer": {"class_name": "Ones", "config": {}}, "beta_regularizer": null, "gamma_regularizer": null, "beta_constraint": null, "gamma_constraint": null}, "name": "batch_normalization_936", "inbound_nodes": [[["conv2d_936", 0, 0, {}]]]}, {"class_name": "Activation", "config": {"name": "activation_932", "trainable": true, "dtype": "float32", "activation": "relu"}, "name": "activation_932", "inbound_nodes": [[["batch_normalization_932", 0, 0, {}]]]}, {"class_name": "Activation", "config": {"name": "activation_936", "trainable": true, "dtype": "float32", "activation": "relu"}, "name": "activation_936", "inbound_nodes": [[["batch_normalization_936", 0, 0, {}]]]}, {"class_name": "Conv2D", "config": {"name": "conv2d_933", "trainable": true, "dtype": "float32", "filters": 384, "kernel_size": [1, 3], "strides": [1, 1], "padding": "same", "data_format": "channels_last", "dilation_rate": [1, 1], "groups": 1, "activation": "linear", "use_bias": false, "kernel_initializer": {"class_name": "GlorotUniform", "config": {"seed": null}}, "bias_initializer": {"class_name": "Zeros", "config": {}}, "kernel_regularizer": null, "bias_regularizer": null, "activity_regularizer": null, "kernel_constraint": null, "bias_constraint": null}, "name": "conv2d_933", "inbound_nodes": [[["activation_932", 0, 0, {}]]]}, {"class_name": "Conv2D", "config": {"name": "conv2d_934", "trainable": true, "dtype": "float32", "filters": 384, "kernel_size": [3, 1], "strides": [1, 1], "padding": "same", "data_format": "channels_last", "dilation_rate": [1, 1], "groups": 1, "activation": "linear", "use_bias": false, "kernel_initializer": {"class_name": "GlorotUniform", "config": {"seed": null}}, "bias_initializer": {"class_name": "Zeros", "config": {}}, "kernel_regularizer": null, "bias_regularizer": null, "activity_regularizer": null, "kernel_constraint": null, "bias_constraint": null}, "name": "conv2d_934", "inbound_nodes": [[["activation_932", 0, 0, {}]]]}, {"class_name": "Conv2D", "config": {"name": "conv2d_937", "trainable": true, "dtype": "float32", "filters": 384, "kernel_size": [1, 3], "strides": [1, 1], "padding": "same", "data_format": "channels_last", "dilation_rate": [1, 1], "groups": 1, "activation": "linear", "use_bias": false, "kernel_initializer": {"class_name": "GlorotUniform", "config": {"seed": null}}, "bias_initializer": {"class_name": "Zeros", "config": {}}, "kernel_regularizer": null, "bias_regularizer": null, "activity_regularizer": null, "kernel_constraint": null, "bias_constraint": null}, "name": "conv2d_937", "inbound_nodes": [[["activation_936", 0, 0, {}]]]}, {"class_name": "Conv2D", "config": {"name": "conv2d_938", "trainable": true, "dtype": "float32", "filters": 384, "kernel_size": [3, 1], "strides": [1, 1], "padding": "same", "data_format": "channels_last", "dilation_rate": [1, 1], "groups": 1, "activation": "linear", "use_bias": false, "kernel_initializer": {"class_name": "GlorotUniform", "config": {"seed": null}}, "bias_initializer": {"class_name": "Zeros", "config": {}}, "kernel_regularizer": null, "bias_regularizer": null, "activity_regularizer": null, "kernel_constraint": null, "bias_constraint": null}, "name": "conv2d_938", "inbound_nodes": [[["activation_936", 0, 0, {}]]]}, {"class_name": "AveragePooling2D", "config": {"name": "average_pooling2d_89", "trainable": true, "dtype": "float32", "pool_size": [3, 3], "padding": "same", "strides": [1, 1], "data_format": "channels_last"}, "name": "average_pooling2d_89", "inbound_nodes": [[["mixed9", 0, 0, {}]]]}, {"class_name": "Conv2D", "config": {"name": "conv2d_931", "trainable": true, "dtype": "float32", "filters": 320, "kernel_size": [1, 1], "strides": [1, 1], "padding": "same", "data_format": "channels_last", "dilation_rate": [1, 1], "groups": 1, "activation": "linear", "use_bias": false, "kernel_initializer": {"class_name": "GlorotUniform", "config": {"seed": null}}, "bias_initializer": {"class_name": "Zeros", "config": {}}, "kernel_regularizer": null, "bias_regularizer": null, "activity_regularizer": null, "kernel_constraint": null, "bias_constraint": null}, "name": "conv2d_931", "inbound_nodes": [[["mixed9", 0, 0, {}]]]}, {"class_name": "BatchNormalization", "config": {"name": "batch_normalization_933", "trainable": true, "dtype": "float32", "axis": [3], "momentum": 0.99, "epsilon": 0.001, "center": true, "scale": false, "beta_initializer": {"class_name": "Zeros", "config": {}}, "gamma_initializer": {"class_name": "Ones", "config": {}}, "moving_mean_initializer": {"class_name": "Zeros", "config": {}}, "moving_variance_initializer": {"class_name": "Ones", "config": {}}, "beta_regularizer": null, "gamma_regularizer": null, "beta_constraint": null, "gamma_constraint": null}, "name": "batch_normalization_933", "inbound_nodes": [[["conv2d_933", 0, 0, {}]]]}, {"class_name": "BatchNormalization", "config": {"name": "batch_normalization_934", "trainable": true, "dtype": "float32", "axis": [3], "momentum": 0.99, "epsilon": 0.001, "center": true, "scale": false, "beta_initializer": {"class_name": "Zeros", "config": {}}, "gamma_initializer": {"class_name": "Ones", "config": {}}, "moving_mean_initializer": {"class_name": "Zeros", "config": {}}, "moving_variance_initializer": {"class_name": "Ones", "config": {}}, "beta_regularizer": null, "gamma_regularizer": null, "beta_constraint": null, "gamma_constraint": null}, "name": "batch_normalization_934", "inbound_nodes": [[["conv2d_934", 0, 0, {}]]]}, {"class_name": "BatchNormalization", "config": {"name": "batch_normalization_937", "trainable": true, "dtype": "float32", "axis": [3], "momentum": 0.99, "epsilon": 0.001, "center": true, "scale": false, "beta_initializer": {"class_name": "Zeros", "config": {}}, "gamma_initializer": {"class_name": "Ones", "config": {}}, "moving_mean_initializer": {"class_name": "Zeros", "config": {}}, "moving_variance_initializer": {"class_name": "Ones", "config": {}}, "beta_regularizer": null, "gamma_regularizer": null, "beta_constraint": null, "gamma_constraint": null}, "name": "batch_normalization_937", "inbound_nodes": [[["conv2d_937", 0, 0, {}]]]}, {"class_name": "BatchNormalization", "config": {"name": "batch_normalization_938", "trainable": true, "dtype": "float32", "axis": [3], "momentum": 0.99, "epsilon": 0.001, "center": true, "scale": false, "beta_initializer": {"class_name": "Zeros", "config": {}}, "gamma_initializer": {"class_name": "Ones", "config": {}}, "moving_mean_initializer": {"class_name": "Zeros", "config": {}}, "moving_variance_initializer": {"class_name": "Ones", "config": {}}, "beta_regularizer": null, "gamma_regularizer": null, "beta_constraint": null, "gamma_constraint": null}, "name": "batch_normalization_938", "inbound_nodes": [[["conv2d_938", 0, 0, {}]]]}, {"class_name": "Conv2D", "config": {"name": "conv2d_939", "trainable": true, "dtype": "float32", "filters": 192, "kernel_size": [1, 1], "strides": [1, 1], "padding": "same", "data_format": "channels_last", "dilation_rate": [1, 1], "groups": 1, "activation": "linear", "use_bias": false, "kernel_initializer": {"class_name": "GlorotUniform", "config": {"seed": null}}, "bias_initializer": {"class_name": "Zeros", "config": {}}, "kernel_regularizer": null, "bias_regularizer": null, "activity_regularizer": null, "kernel_constraint": null, "bias_constraint": null}, "name": "conv2d_939", "inbound_nodes": [[["average_pooling2d_89", 0, 0, {}]]]}, {"class_name": "BatchNormalization", "config": {"name": "batch_normalization_931", "trainable": true, "dtype": "float32", "axis": [3], "momentum": 0.99, "epsilon": 0.001, "center": true, "scale": false, "beta_initializer": {"class_name": "Zeros", "config": {}}, "gamma_initializer": {"class_name": "Ones", "config": {}}, "moving_mean_initializer": {"class_name": "Zeros", "config": {}}, "moving_variance_initializer": {"class_name": "Ones", "config": {}}, "beta_regularizer": null, "gamma_regularizer": null, "beta_constraint": null, "gamma_constraint": null}, "name": "batch_normalization_931", "inbound_nodes": [[["conv2d_931", 0, 0, {}]]]}, {"class_name": "Activation", "config": {"name": "activation_933", "trainable": true, "dtype": "float32", "activation": "relu"}, "name": "activation_933", "inbound_nodes": [[["batch_normalization_933", 0, 0, {}]]]}, {"class_name": "Activation", "config": {"name": "activation_934", "trainable": true, "dtype": "float32", "activation": "relu"}, "name": "activation_934", "inbound_nodes": [[["batch_normalization_934", 0, 0, {}]]]}, {"class_name": "Activation", "config": {"name": "activation_937", "trainable": true, "dtype": "float32", "activation": "relu"}, "name": "activation_937", "inbound_nodes": [[["batch_normalization_937", 0, 0, {}]]]}, {"class_name": "Activation", "config": {"name": "activation_938", "trainable": true, "dtype": "float32", "activation": "relu"}, "name": "activation_938", "inbound_nodes": [[["batch_normalization_938", 0, 0, {}]]]}, {"class_name": "BatchNormalization", "config": {"name": "batch_normalization_939", "trainable": true, "dtype": "float32", "axis": [3], "momentum": 0.99, "epsilon": 0.001, "center": true, "scale": false, "beta_initializer": {"class_name": "Zeros", "config": {}}, "gamma_initializer": {"class_name": "Ones", "config": {}}, "moving_mean_initializer": {"class_name": "Zeros", "config": {}}, "moving_variance_initializer": {"class_name": "Ones", "config": {}}, "beta_regularizer": null, "gamma_regularizer": null, "beta_constraint": null, "gamma_constraint": null}, "name": "batch_normalization_939", "inbound_nodes": [[["conv2d_939", 0, 0, {}]]]}, {"class_name": "Activation", "config": {"name": "activation_931", "trainable": true, "dtype": "float32", "activation": "relu"}, "name": "activation_931", "inbound_nodes": [[["batch_normalization_931", 0, 0, {}]]]}, {"class_name": "Concatenate", "config": {"name": "mixed9_1", "trainable": true, "dtype": "float32", "axis": 3}, "name": "mixed9_1", "inbound_nodes": [[["activation_933", 0, 0, {}], ["activation_934", 0, 0, {}]]]}, {"class_name": "Concatenate", "config": {"name": "concatenate_19", "trainable": true, "dtype": "float32", "axis": 3}, "name": "concatenate_19", "inbound_nodes": [[["activation_937", 0, 0, {}], ["activation_938", 0, 0, {}]]]}, {"class_name": "Activation", "config": {"name": "activation_939", "trainable": true, "dtype": "float32", "activation": "relu"}, "name": "activation_939", "inbound_nodes": [[["batch_normalization_939", 0, 0, {}]]]}, {"class_name": "Concatenate", "config": {"name": "mixed10", "trainable": true, "dtype": "float32", "axis": 3}, "name": "mixed10", "inbound_nodes": [[["activation_931", 0, 0, {}], ["mixed9_1", 0, 0, {}], ["concatenate_19", 0, 0, {}], ["activation_939", 0, 0, {}]]]}, {"class_name": "GlobalAveragePooling2D", "config": {"name": "global_average_pooling2d_9", "trainable": true, "dtype": "float32", "data_format": "channels_last", "keepdims": false}, "name": "global_average_pooling2d_9", "inbound_nodes": [[["mixed10", 0, 0, {}]]]}, {"class_name": "Dense", "config": {"name": "dense_16", "trainable": true, "dtype": "float32", "units": 128, "activation": "relu", "use_bias": true, "kernel_initializer": {"class_name": "GlorotUniform", "config": {"seed": null}}, "bias_initializer": {"class_name": "Zeros", "config": {}}, "kernel_regularizer": null, "bias_regularizer": null, "activity_regularizer": null, "kernel_constraint": null, "bias_constraint": null}, "name": "dense_16", "inbound_nodes": [[["global_average_pooling2d_9", 0, 0, {}]]]}, {"class_name": "Dropout", "config": {"name": "dropout_9", "trainable": true, "dtype": "float32", "rate": 0.2, "noise_shape": null, "seed": null}, "name": "dropout_9", "inbound_nodes": [[["dense_16", 0, 0, {}]]]}, {"class_name": "Dense", "config": {"name": "dense_17", "trainable": true, "dtype": "float32", "units": 17, "activation": "softmax", "use_bias": true, "kernel_initializer": {"class_name": "GlorotUniform", "config": {"seed": null}}, "bias_initializer": {"class_name": "Zeros", "config": {}}, "kernel_regularizer": {"class_name": "L2", "config": {"l2": 0.004999999888241291}}, "bias_regularizer": null, "activity_regularizer": null, "kernel_constraint": null, "bias_constraint": null}, "name": "dense_17", "inbound_nodes": [[["dropout_9", 0, 0, {}]]]}], "input_layers": [["input_10", 0, 0]], "output_layers": [["dense_17", 0, 0]]}}, "training_config": {"loss": "categorical_crossentropy", "metrics": [[{"class_name": "MeanMetricWrapper", "config": {"name": "accuracy", "dtype": "float32", "fn": "categorical_accuracy"}}]], "weighted_metrics": null, "loss_weights": null, "optimizer_config": {"class_name": "Custom>SGD", "config": {"name": "SGD", "weight_decay": null, "clipnorm": null, "global_clipnorm": null, "clipvalue": null, "use_ema": false, "ema_momentum": 0.99, "ema_overwrite_frequency": null, "jit_compile": true, "is_legacy_optimizer": false, "learning_rate": 9.999999747378752e-05, "momentum": 0.9, "nesterov": false}}}}, "weightsManifest": [{"paths": ["group1-shard1of22.bin", "group1-shard2of22.bin", "group1-shard3of22.bin", "group1-shard4of22.bin", "group1-shard5of22.bin", "group1-shard6of22.bin", "group1-shard7of22.bin", "group1-shard8of22.bin", "group1-shard9of22.bin", "group1-shard10of22.bin", "group1-shard11of22.bin", "group1-shard12of22.bin", "group1-shard13of22.bin", "group1-shard14of22.bin", "group1-shard15of22.bin", "group1-shard16of22.bin", "group1-shard17of22.bin", "group1-shard18of22.bin", "group1-shard19of22.bin", "group1-shard20of22.bin", "group1-shard21of22.bin", "group1-shard22of22.bin"], "weights": [{"name": "batch_normalization_846/beta", "shape": [32], "dtype": "float32"}, {"name": "batch_normalization_846/moving_mean", "shape": [32], "dtype": "float32"}, {"name": "batch_normalization_846/moving_variance", "shape": [32], "dtype": "float32"}, {"name": "batch_normalization_847/beta", "shape": [32], "dtype": "float32"}, {"name": "batch_normalization_847/moving_mean", "shape": [32], "dtype": "float32"}, {"name": "batch_normalization_847/moving_variance", "shape": [32], "dtype": "float32"}, {"name": "batch_normalization_848/beta", "shape": [64], "dtype": "float32"}, {"name": "batch_normalization_848/moving_mean", "shape": [64], "dtype": "float32"}, {"name": "batch_normalization_848/moving_variance", "shape": [64], "dtype": "float32"}, {"name": "batch_normalization_849/beta", "shape": [80], "dtype": "float32"}, {"name": "batch_normalization_849/moving_mean", "shape": [80], "dtype": "float32"}, {"name": "batch_normalization_849/moving_variance", "shape": [80], "dtype": "float32"}, {"name": "batch_normalization_850/beta", "shape": [192], "dtype": "float32"}, {"name": "batch_normalization_850/moving_mean", "shape": [192], "dtype": "float32"}, {"name": "batch_normalization_850/moving_variance", "shape": [192], "dtype": "float32"}, {"name": "batch_normalization_851/beta", "shape": [64], "dtype": "float32"}, {"name": "batch_normalization_851/moving_mean", "shape": [64], "dtype": "float32"}, {"name": "batch_normalization_851/moving_variance", "shape": [64], "dtype": "float32"}, {"name": "batch_normalization_852/beta", "shape": [48], "dtype": "float32"}, {"name": "batch_normalization_852/moving_mean", "shape": [48], "dtype": "float32"}, {"name": "batch_normalization_852/moving_variance", "shape": [48], "dtype": "float32"}, {"name": "batch_normalization_853/beta", "shape": [64], "dtype": "float32"}, {"name": "batch_normalization_853/moving_mean", "shape": [64], "dtype": "float32"}, {"name": "batch_normalization_853/moving_variance", "shape": [64], "dtype": "float32"}, {"name": "batch_normalization_854/beta", "shape": [64], "dtype": "float32"}, {"name": "batch_normalization_854/moving_mean", "shape": [64], "dtype": "float32"}, {"name": "batch_normalization_854/moving_variance", "shape": [64], "dtype": "float32"}, {"name": "batch_normalization_855/beta", "shape": [96], "dtype": "float32"}, {"name": "batch_normalization_855/moving_mean", "shape": [96], "dtype": "float32"}, {"name": "batch_normalization_855/moving_variance", "shape": [96], "dtype": "float32"}, {"name": "batch_normalization_856/beta", "shape": [96], "dtype": "float32"}, {"name": "batch_normalization_856/moving_mean", "shape": [96], "dtype": "float32"}, {"name": "batch_normalization_856/moving_variance", "shape": [96], "dtype": "float32"}, {"name": "batch_normalization_857/beta", "shape": [32], "dtype": "float32"}, {"name": "batch_normalization_857/moving_mean", "shape": [32], "dtype": "float32"}, {"name": "batch_normalization_857/moving_variance", "shape": [32], "dtype": "float32"}, {"name": "batch_normalization_858/beta", "shape": [64], "dtype": "float32"}, {"name": "batch_normalization_858/moving_mean", "shape": [64], "dtype": "float32"}, {"name": "batch_normalization_858/moving_variance", "shape": [64], "dtype": "float32"}, {"name": "batch_normalization_859/beta", "shape": [48], "dtype": "float32"}, {"name": "batch_normalization_859/moving_mean", "shape": [48], "dtype": "float32"}, {"name": "batch_normalization_859/moving_variance", "shape": [48], "dtype": "float32"}, {"name": "batch_normalization_860/beta", "shape": [64], "dtype": "float32"}, {"name": "batch_normalization_860/moving_mean", "shape": [64], "dtype": "float32"}, {"name": "batch_normalization_860/moving_variance", "shape": [64], "dtype": "float32"}, {"name": "batch_normalization_861/beta", "shape": [64], "dtype": "float32"}, {"name": "batch_normalization_861/moving_mean", "shape": [64], "dtype": "float32"}, {"name": "batch_normalization_861/moving_variance", "shape": [64], "dtype": "float32"}, {"name": "batch_normalization_862/beta", "shape": [96], "dtype": "float32"}, {"name": "batch_normalization_862/moving_mean", "shape": [96], "dtype": "float32"}, {"name": "batch_normalization_862/moving_variance", "shape": [96], "dtype": "float32"}, {"name": "batch_normalization_863/beta", "shape": [96], "dtype": "float32"}, {"name": "batch_normalization_863/moving_mean", "shape": [96], "dtype": "float32"}, {"name": "batch_normalization_863/moving_variance", "shape": [96], "dtype": "float32"}, {"name": "batch_normalization_864/beta", "shape": [64], "dtype": "float32"}, {"name": "batch_normalization_864/moving_mean", "shape": [64], "dtype": "float32"}, {"name": "batch_normalization_864/moving_variance", "shape": [64], "dtype": "float32"}, {"name": "batch_normalization_865/beta", "shape": [64], "dtype": "float32"}, {"name": "batch_normalization_865/moving_mean", "shape": [64], "dtype": "float32"}, {"name": "batch_normalization_865/moving_variance", "shape": [64], "dtype": "float32"}, {"name": "batch_normalization_866/beta", "shape": [48], "dtype": "float32"}, {"name": "batch_normalization_866/moving_mean", "shape": [48], "dtype": "float32"}, {"name": "batch_normalization_866/moving_variance", "shape": [48], "dtype": "float32"}, {"name": "batch_normalization_867/beta", "shape": [64], "dtype": "float32"}, {"name": "batch_normalization_867/moving_mean", "shape": [64], "dtype": "float32"}, {"name": "batch_normalization_867/moving_variance", "shape": [64], "dtype": "float32"}, {"name": "batch_normalization_868/beta", "shape": [64], "dtype": "float32"}, {"name": "batch_normalization_868/moving_mean", "shape": [64], "dtype": "float32"}, {"name": "batch_normalization_868/moving_variance", "shape": [64], "dtype": "float32"}, {"name": "batch_normalization_869/beta", "shape": [96], "dtype": "float32"}, {"name": "batch_normalization_869/moving_mean", "shape": [96], "dtype": "float32"}, {"name": "batch_normalization_869/moving_variance", "shape": [96], "dtype": "float32"}, {"name": "batch_normalization_870/beta", "shape": [96], "dtype": "float32"}, {"name": "batch_normalization_870/moving_mean", "shape": [96], "dtype": "float32"}, {"name": "batch_normalization_870/moving_variance", "shape": [96], "dtype": "float32"}, {"name": "batch_normalization_871/beta", "shape": [64], "dtype": "float32"}, {"name": "batch_normalization_871/moving_mean", "shape": [64], "dtype": "float32"}, {"name": "batch_normalization_871/moving_variance", "shape": [64], "dtype": "float32"}, {"name": "batch_normalization_872/beta", "shape": [384], "dtype": "float32"}, {"name": "batch_normalization_872/moving_mean", "shape": [384], "dtype": "float32"}, {"name": "batch_normalization_872/moving_variance", "shape": [384], "dtype": "float32"}, {"name": "batch_normalization_873/beta", "shape": [64], "dtype": "float32"}, {"name": "batch_normalization_873/moving_mean", "shape": [64], "dtype": "float32"}, {"name": "batch_normalization_873/moving_variance", "shape": [64], "dtype": "float32"}, {"name": "batch_normalization_874/beta", "shape": [96], "dtype": "float32"}, {"name": "batch_normalization_874/moving_mean", "shape": [96], "dtype": "float32"}, {"name": "batch_normalization_874/moving_variance", "shape": [96], "dtype": "float32"}, {"name": "batch_normalization_875/beta", "shape": [96], "dtype": "float32"}, {"name": "batch_normalization_875/moving_mean", "shape": [96], "dtype": "float32"}, {"name": "batch_normalization_875/moving_variance", "shape": [96], "dtype": "float32"}, {"name": "batch_normalization_876/beta", "shape": [192], "dtype": "float32"}, {"name": "batch_normalization_876/moving_mean", "shape": [192], "dtype": "float32"}, {"name": "batch_normalization_876/moving_variance", "shape": [192], "dtype": "float32"}, {"name": "batch_normalization_877/beta", "shape": [128], "dtype": "float32"}, {"name": "batch_normalization_877/moving_mean", "shape": [128], "dtype": "float32"}, {"name": "batch_normalization_877/moving_variance", "shape": [128], "dtype": "float32"}, {"name": "batch_normalization_878/beta", "shape": [128], "dtype": "float32"}, {"name": "batch_normalization_878/moving_mean", "shape": [128], "dtype": "float32"}, {"name": "batch_normalization_878/moving_variance", "shape": [128], "dtype": "float32"}, {"name": "batch_normalization_879/beta", "shape": [192], "dtype": "float32"}, {"name": "batch_normalization_879/moving_mean", "shape": [192], "dtype": "float32"}, {"name": "batch_normalization_879/moving_variance", "shape": [192], "dtype": "float32"}, {"name": "batch_normalization_880/beta", "shape": [128], "dtype": "float32"}, {"name": "batch_normalization_880/moving_mean", "shape": [128], "dtype": "float32"}, {"name": "batch_normalization_880/moving_variance", "shape": [128], "dtype": "float32"}, {"name": "batch_normalization_881/beta", "shape": [128], "dtype": "float32"}, {"name": "batch_normalization_881/moving_mean", "shape": [128], "dtype": "float32"}, {"name": "batch_normalization_881/moving_variance", "shape": [128], "dtype": "float32"}, {"name": "batch_normalization_882/beta", "shape": [128], "dtype": "float32"}, {"name": "batch_normalization_882/moving_mean", "shape": [128], "dtype": "float32"}, {"name": "batch_normalization_882/moving_variance", "shape": [128], "dtype": "float32"}, {"name": "batch_normalization_883/beta", "shape": [128], "dtype": "float32"}, {"name": "batch_normalization_883/moving_mean", "shape": [128], "dtype": "float32"}, {"name": "batch_normalization_883/moving_variance", "shape": [128], "dtype": "float32"}, {"name": "batch_normalization_884/beta", "shape": [192], "dtype": "float32"}, {"name": "batch_normalization_884/moving_mean", "shape": [192], "dtype": "float32"}, {"name": "batch_normalization_884/moving_variance", "shape": [192], "dtype": "float32"}, {"name": "batch_normalization_885/beta", "shape": [192], "dtype": "float32"}, {"name": "batch_normalization_885/moving_mean", "shape": [192], "dtype": "float32"}, {"name": "batch_normalization_885/moving_variance", "shape": [192], "dtype": "float32"}, {"name": "batch_normalization_886/beta", "shape": [192], "dtype": "float32"}, {"name": "batch_normalization_886/moving_mean", "shape": [192], "dtype": "float32"}, {"name": "batch_normalization_886/moving_variance", "shape": [192], "dtype": "float32"}, {"name": "batch_normalization_887/beta", "shape": [160], "dtype": "float32"}, {"name": "batch_normalization_887/moving_mean", "shape": [160], "dtype": "float32"}, {"name": "batch_normalization_887/moving_variance", "shape": [160], "dtype": "float32"}, {"name": "batch_normalization_888/beta", "shape": [160], "dtype": "float32"}, {"name": "batch_normalization_888/moving_mean", "shape": [160], "dtype": "float32"}, {"name": "batch_normalization_888/moving_variance", "shape": [160], "dtype": "float32"}, {"name": "batch_normalization_889/beta", "shape": [192], "dtype": "float32"}, {"name": "batch_normalization_889/moving_mean", "shape": [192], "dtype": "float32"}, {"name": "batch_normalization_889/moving_variance", "shape": [192], "dtype": "float32"}, {"name": "batch_normalization_890/beta", "shape": [160], "dtype": "float32"}, {"name": "batch_normalization_890/moving_mean", "shape": [160], "dtype": "float32"}, {"name": "batch_normalization_890/moving_variance", "shape": [160], "dtype": "float32"}, {"name": "batch_normalization_891/beta", "shape": [160], "dtype": "float32"}, {"name": "batch_normalization_891/moving_mean", "shape": [160], "dtype": "float32"}, {"name": "batch_normalization_891/moving_variance", "shape": [160], "dtype": "float32"}, {"name": "batch_normalization_892/beta", "shape": [160], "dtype": "float32"}, {"name": "batch_normalization_892/moving_mean", "shape": [160], "dtype": "float32"}, {"name": "batch_normalization_892/moving_variance", "shape": [160], "dtype": "float32"}, {"name": "batch_normalization_893/beta", "shape": [160], "dtype": "float32"}, {"name": "batch_normalization_893/moving_mean", "shape": [160], "dtype": "float32"}, {"name": "batch_normalization_893/moving_variance", "shape": [160], "dtype": "float32"}, {"name": "batch_normalization_894/beta", "shape": [192], "dtype": "float32"}, {"name": "batch_normalization_894/moving_mean", "shape": [192], "dtype": "float32"}, {"name": "batch_normalization_894/moving_variance", "shape": [192], "dtype": "float32"}, {"name": "batch_normalization_895/beta", "shape": [192], "dtype": "float32"}, {"name": "batch_normalization_895/moving_mean", "shape": [192], "dtype": "float32"}, {"name": "batch_normalization_895/moving_variance", "shape": [192], "dtype": "float32"}, {"name": "batch_normalization_896/beta", "shape": [192], "dtype": "float32"}, {"name": "batch_normalization_896/moving_mean", "shape": [192], "dtype": "float32"}, {"name": "batch_normalization_896/moving_variance", "shape": [192], "dtype": "float32"}, {"name": "batch_normalization_897/beta", "shape": [160], "dtype": "float32"}, {"name": "batch_normalization_897/moving_mean", "shape": [160], "dtype": "float32"}, {"name": "batch_normalization_897/moving_variance", "shape": [160], "dtype": "float32"}, {"name": "batch_normalization_898/beta", "shape": [160], "dtype": "float32"}, {"name": "batch_normalization_898/moving_mean", "shape": [160], "dtype": "float32"}, {"name": "batch_normalization_898/moving_variance", "shape": [160], "dtype": "float32"}, {"name": "batch_normalization_899/beta", "shape": [192], "dtype": "float32"}, {"name": "batch_normalization_899/moving_mean", "shape": [192], "dtype": "float32"}, {"name": "batch_normalization_899/moving_variance", "shape": [192], "dtype": "float32"}, {"name": "batch_normalization_900/beta", "shape": [160], "dtype": "float32"}, {"name": "batch_normalization_900/moving_mean", "shape": [160], "dtype": "float32"}, {"name": "batch_normalization_900/moving_variance", "shape": [160], "dtype": "float32"}, {"name": "batch_normalization_901/beta", "shape": [160], "dtype": "float32"}, {"name": "batch_normalization_901/moving_mean", "shape": [160], "dtype": "float32"}, {"name": "batch_normalization_901/moving_variance", "shape": [160], "dtype": "float32"}, {"name": "batch_normalization_902/beta", "shape": [160], "dtype": "float32"}, {"name": "batch_normalization_902/moving_mean", "shape": [160], "dtype": "float32"}, {"name": "batch_normalization_902/moving_variance", "shape": [160], "dtype": "float32"}, {"name": "batch_normalization_903/beta", "shape": [160], "dtype": "float32"}, {"name": "batch_normalization_903/moving_mean", "shape": [160], "dtype": "float32"}, {"name": "batch_normalization_903/moving_variance", "shape": [160], "dtype": "float32"}, {"name": "batch_normalization_904/beta", "shape": [192], "dtype": "float32"}, {"name": "batch_normalization_904/moving_mean", "shape": [192], "dtype": "float32"}, {"name": "batch_normalization_904/moving_variance", "shape": [192], "dtype": "float32"}, {"name": "batch_normalization_905/beta", "shape": [192], "dtype": "float32"}, {"name": "batch_normalization_905/moving_mean", "shape": [192], "dtype": "float32"}, {"name": "batch_normalization_905/moving_variance", "shape": [192], "dtype": "float32"}, {"name": "batch_normalization_906/beta", "shape": [192], "dtype": "float32"}, {"name": "batch_normalization_906/moving_mean", "shape": [192], "dtype": "float32"}, {"name": "batch_normalization_906/moving_variance", "shape": [192], "dtype": "float32"}, {"name": "batch_normalization_907/beta", "shape": [192], "dtype": "float32"}, {"name": "batch_normalization_907/moving_mean", "shape": [192], "dtype": "float32"}, {"name": "batch_normalization_907/moving_variance", "shape": [192], "dtype": "float32"}, {"name": "batch_normalization_908/beta", "shape": [192], "dtype": "float32"}, {"name": "batch_normalization_908/moving_mean", "shape": [192], "dtype": "float32"}, {"name": "batch_normalization_908/moving_variance", "shape": [192], "dtype": "float32"}, {"name": "batch_normalization_909/beta", "shape": [192], "dtype": "float32"}, {"name": "batch_normalization_909/moving_mean", "shape": [192], "dtype": "float32"}, {"name": "batch_normalization_909/moving_variance", "shape": [192], "dtype": "float32"}, {"name": "batch_normalization_910/beta", "shape": [192], "dtype": "float32"}, {"name": "batch_normalization_910/moving_mean", "shape": [192], "dtype": "float32"}, {"name": "batch_normalization_910/moving_variance", "shape": [192], "dtype": "float32"}, {"name": "batch_normalization_911/beta", "shape": [192], "dtype": "float32"}, {"name": "batch_normalization_911/moving_mean", "shape": [192], "dtype": "float32"}, {"name": "batch_normalization_911/moving_variance", "shape": [192], "dtype": "float32"}, {"name": "batch_normalization_912/beta", "shape": [192], "dtype": "float32"}, {"name": "batch_normalization_912/moving_mean", "shape": [192], "dtype": "float32"}, {"name": "batch_normalization_912/moving_variance", "shape": [192], "dtype": "float32"}, {"name": "batch_normalization_913/beta", "shape": [192], "dtype": "float32"}, {"name": "batch_normalization_913/moving_mean", "shape": [192], "dtype": "float32"}, {"name": "batch_normalization_913/moving_variance", "shape": [192], "dtype": "float32"}, {"name": "batch_normalization_914/beta", "shape": [192], "dtype": "float32"}, {"name": "batch_normalization_914/moving_mean", "shape": [192], "dtype": "float32"}, {"name": "batch_normalization_914/moving_variance", "shape": [192], "dtype": "float32"}, {"name": "batch_normalization_915/beta", "shape": [192], "dtype": "float32"}, {"name": "batch_normalization_915/moving_mean", "shape": [192], "dtype": "float32"}, {"name": "batch_normalization_915/moving_variance", "shape": [192], "dtype": "float32"}, {"name": "batch_normalization_916/beta", "shape": [192], "dtype": "float32"}, {"name": "batch_normalization_916/moving_mean", "shape": [192], "dtype": "float32"}, {"name": "batch_normalization_916/moving_variance", "shape": [192], "dtype": "float32"}, {"name": "batch_normalization_917/beta", "shape": [320], "dtype": "float32"}, {"name": "batch_normalization_917/moving_mean", "shape": [320], "dtype": "float32"}, {"name": "batch_normalization_917/moving_variance", "shape": [320], "dtype": "float32"}, {"name": "batch_normalization_918/beta", "shape": [192], "dtype": "float32"}, {"name": "batch_normalization_918/moving_mean", "shape": [192], "dtype": "float32"}, {"name": "batch_normalization_918/moving_variance", "shape": [192], "dtype": "float32"}, {"name": "batch_normalization_919/beta", "shape": [192], "dtype": "float32"}, {"name": "batch_normalization_919/moving_mean", "shape": [192], "dtype": "float32"}, {"name": "batch_normalization_919/moving_variance", "shape": [192], "dtype": "float32"}, {"name": "batch_normalization_920/beta", "shape": [192], "dtype": "float32"}, {"name": "batch_normalization_920/moving_mean", "shape": [192], "dtype": "float32"}, {"name": "batch_normalization_920/moving_variance", "shape": [192], "dtype": "float32"}, {"name": "batch_normalization_921/beta", "shape": [192], "dtype": "float32"}, {"name": "batch_normalization_921/moving_mean", "shape": [192], "dtype": "float32"}, {"name": "batch_normalization_921/moving_variance", "shape": [192], "dtype": "float32"}, {"name": "batch_normalization_922/beta", "shape": [320], "dtype": "float32"}, {"name": "batch_normalization_922/moving_mean", "shape": [320], "dtype": "float32"}, {"name": "batch_normalization_922/moving_variance", "shape": [320], "dtype": "float32"}, {"name": "batch_normalization_923/beta", "shape": [384], "dtype": "float32"}, {"name": "batch_normalization_923/moving_mean", "shape": [384], "dtype": "float32"}, {"name": "batch_normalization_923/moving_variance", "shape": [384], "dtype": "float32"}, {"name": "batch_normalization_924/beta", "shape": [384], "dtype": "float32"}, {"name": "batch_normalization_924/moving_mean", "shape": [384], "dtype": "float32"}, {"name": "batch_normalization_924/moving_variance", "shape": [384], "dtype": "float32"}, {"name": "batch_normalization_925/beta", "shape": [384], "dtype": "float32"}, {"name": "batch_normalization_925/moving_mean", "shape": [384], "dtype": "float32"}, {"name": "batch_normalization_925/moving_variance", "shape": [384], "dtype": "float32"}, {"name": "batch_normalization_926/beta", "shape": [448], "dtype": "float32"}, {"name": "batch_normalization_926/moving_mean", "shape": [448], "dtype": "float32"}, {"name": "batch_normalization_926/moving_variance", "shape": [448], "dtype": "float32"}, {"name": "batch_normalization_927/beta", "shape": [384], "dtype": "float32"}, {"name": "batch_normalization_927/moving_mean", "shape": [384], "dtype": "float32"}, {"name": "batch_normalization_927/moving_variance", "shape": [384], "dtype": "float32"}, {"name": "batch_normalization_928/beta", "shape": [384], "dtype": "float32"}, {"name": "batch_normalization_928/moving_mean", "shape": [384], "dtype": "float32"}, {"name": "batch_normalization_928/moving_variance", "shape": [384], "dtype": "float32"}, {"name": "batch_normalization_929/beta", "shape": [384], "dtype": "float32"}, {"name": "batch_normalization_929/moving_mean", "shape": [384], "dtype": "float32"}, {"name": "batch_normalization_929/moving_variance", "shape": [384], "dtype": "float32"}, {"name": "batch_normalization_930/beta", "shape": [192], "dtype": "float32"}, {"name": "batch_normalization_930/moving_mean", "shape": [192], "dtype": "float32"}, {"name": "batch_normalization_930/moving_variance", "shape": [192], "dtype": "float32"}, {"name": "batch_normalization_931/beta", "shape": [320], "dtype": "float32"}, {"name": "batch_normalization_931/moving_mean", "shape": [320], "dtype": "float32"}, {"name": "batch_normalization_931/moving_variance", "shape": [320], "dtype": "float32"}, {"name": "batch_normalization_932/beta", "shape": [384], "dtype": "float32"}, {"name": "batch_normalization_932/moving_mean", "shape": [384], "dtype": "float32"}, {"name": "batch_normalization_932/moving_variance", "shape": [384], "dtype": "float32"}, {"name": "batch_normalization_933/beta", "shape": [384], "dtype": "float32"}, {"name": "batch_normalization_933/moving_mean", "shape": [384], "dtype": "float32"}, {"name": "batch_normalization_933/moving_variance", "shape": [384], "dtype": "float32"}, {"name": "batch_normalization_934/beta", "shape": [384], "dtype": "float32"}, {"name": "batch_normalization_934/moving_mean", "shape": [384], "dtype": "float32"}, {"name": "batch_normalization_934/moving_variance", "shape": [384], "dtype": "float32"}, {"name": "batch_normalization_935/beta", "shape": [448], "dtype": "float32"}, {"name": "batch_normalization_935/moving_mean", "shape": [448], "dtype": "float32"}, {"name": "batch_normalization_935/moving_variance", "shape": [448], "dtype": "float32"}, {"name": "batch_normalization_936/beta", "shape": [384], "dtype": "float32"}, {"name": "batch_normalization_936/moving_mean", "shape": [384], "dtype": "float32"}, {"name": "batch_normalization_936/moving_variance", "shape": [384], "dtype": "float32"}, {"name": "batch_normalization_937/beta", "shape": [384], "dtype": "float32"}, {"name": "batch_normalization_937/moving_mean", "shape": [384], "dtype": "float32"}, {"name": "batch_normalization_937/moving_variance", "shape": [384], "dtype": "float32"}, {"name": "batch_normalization_938/beta", "shape": [384], "dtype": "float32"}, {"name": "batch_normalization_938/moving_mean", "shape": [384], "dtype": "float32"}, {"name": "batch_normalization_938/moving_variance", "shape": [384], "dtype": "float32"}, {"name": "batch_normalization_939/beta", "shape": [192], "dtype": "float32"}, {"name": "batch_normalization_939/moving_mean", "shape": [192], "dtype": "float32"}, {"name": "batch_normalization_939/moving_variance", "shape": [192], "dtype": "float32"}, {"name": "conv2d_846/kernel", "shape": [3, 3, 3, 32], "dtype": "float32"}, {"name": "conv2d_847/kernel", "shape": [3, 3, 32, 32], "dtype": "float32"}, {"name": "conv2d_848/kernel", "shape": [3, 3, 32, 64], "dtype": "float32"}, {"name": "conv2d_849/kernel", "shape": [1, 1, 64, 80], "dtype": "float32"}, {"name": "conv2d_850/kernel", "shape": [3, 3, 80, 192], "dtype": "float32"}, {"name": "conv2d_851/kernel", "shape": [1, 1, 192, 64], "dtype": "float32"}, {"name": "conv2d_852/kernel", "shape": [1, 1, 192, 48], "dtype": "float32"}, {"name": "conv2d_853/kernel", "shape": [5, 5, 48, 64], "dtype": "float32"}, {"name": "conv2d_854/kernel", "shape": [1, 1, 192, 64], "dtype": "float32"}, {"name": "conv2d_855/kernel", "shape": [3, 3, 64, 96], "dtype": "float32"}, {"name": "conv2d_856/kernel", "shape": [3, 3, 96, 96], "dtype": "float32"}, {"name": "conv2d_857/kernel", "shape": [1, 1, 192, 32], "dtype": "float32"}, {"name": "conv2d_858/kernel", "shape": [1, 1, 256, 64], "dtype": "float32"}, {"name": "conv2d_859/kernel", "shape": [1, 1, 256, 48], "dtype": "float32"}, {"name": "conv2d_860/kernel", "shape": [5, 5, 48, 64], "dtype": "float32"}, {"name": "conv2d_861/kernel", "shape": [1, 1, 256, 64], "dtype": "float32"}, {"name": "conv2d_862/kernel", "shape": [3, 3, 64, 96], "dtype": "float32"}, {"name": "conv2d_863/kernel", "shape": [3, 3, 96, 96], "dtype": "float32"}, {"name": "conv2d_864/kernel", "shape": [1, 1, 256, 64], "dtype": "float32"}, {"name": "conv2d_865/kernel", "shape": [1, 1, 288, 64], "dtype": "float32"}, {"name": "conv2d_866/kernel", "shape": [1, 1, 288, 48], "dtype": "float32"}, {"name": "conv2d_867/kernel", "shape": [5, 5, 48, 64], "dtype": "float32"}, {"name": "conv2d_868/kernel", "shape": [1, 1, 288, 64], "dtype": "float32"}, {"name": "conv2d_869/kernel", "shape": [3, 3, 64, 96], "dtype": "float32"}, {"name": "conv2d_870/kernel", "shape": [3, 3, 96, 96], "dtype": "float32"}, {"name": "conv2d_871/kernel", "shape": [1, 1, 288, 64], "dtype": "float32"}, {"name": "conv2d_872/kernel", "shape": [3, 3, 288, 384], "dtype": "float32"}, {"name": "conv2d_873/kernel", "shape": [1, 1, 288, 64], "dtype": "float32"}, {"name": "conv2d_874/kernel", "shape": [3, 3, 64, 96], "dtype": "float32"}, {"name": "conv2d_875/kernel", "shape": [3, 3, 96, 96], "dtype": "float32"}, {"name": "conv2d_876/kernel", "shape": [1, 1, 768, 192], "dtype": "float32"}, {"name": "conv2d_877/kernel", "shape": [1, 1, 768, 128], "dtype": "float32"}, {"name": "conv2d_878/kernel", "shape": [1, 7, 128, 128], "dtype": "float32"}, {"name": "conv2d_879/kernel", "shape": [7, 1, 128, 192], "dtype": "float32"}, {"name": "conv2d_880/kernel", "shape": [1, 1, 768, 128], "dtype": "float32"}, {"name": "conv2d_881/kernel", "shape": [7, 1, 128, 128], "dtype": "float32"}, {"name": "conv2d_882/kernel", "shape": [1, 7, 128, 128], "dtype": "float32"}, {"name": "conv2d_883/kernel", "shape": [7, 1, 128, 128], "dtype": "float32"}, {"name": "conv2d_884/kernel", "shape": [1, 7, 128, 192], "dtype": "float32"}, {"name": "conv2d_885/kernel", "shape": [1, 1, 768, 192], "dtype": "float32"}, {"name": "conv2d_886/kernel", "shape": [1, 1, 768, 192], "dtype": "float32"}, {"name": "conv2d_887/kernel", "shape": [1, 1, 768, 160], "dtype": "float32"}, {"name": "conv2d_888/kernel", "shape": [1, 7, 160, 160], "dtype": "float32"}, {"name": "conv2d_889/kernel", "shape": [7, 1, 160, 192], "dtype": "float32"}, {"name": "conv2d_890/kernel", "shape": [1, 1, 768, 160], "dtype": "float32"}, {"name": "conv2d_891/kernel", "shape": [7, 1, 160, 160], "dtype": "float32"}, {"name": "conv2d_892/kernel", "shape": [1, 7, 160, 160], "dtype": "float32"}, {"name": "conv2d_893/kernel", "shape": [7, 1, 160, 160], "dtype": "float32"}, {"name": "conv2d_894/kernel", "shape": [1, 7, 160, 192], "dtype": "float32"}, {"name": "conv2d_895/kernel", "shape": [1, 1, 768, 192], "dtype": "float32"}, {"name": "conv2d_896/kernel", "shape": [1, 1, 768, 192], "dtype": "float32"}, {"name": "conv2d_897/kernel", "shape": [1, 1, 768, 160], "dtype": "float32"}, {"name": "conv2d_898/kernel", "shape": [1, 7, 160, 160], "dtype": "float32"}, {"name": "conv2d_899/kernel", "shape": [7, 1, 160, 192], "dtype": "float32"}, {"name": "conv2d_900/kernel", "shape": [1, 1, 768, 160], "dtype": "float32"}, {"name": "conv2d_901/kernel", "shape": [7, 1, 160, 160], "dtype": "float32"}, {"name": "conv2d_902/kernel", "shape": [1, 7, 160, 160], "dtype": "float32"}, {"name": "conv2d_903/kernel", "shape": [7, 1, 160, 160], "dtype": "float32"}, {"name": "conv2d_904/kernel", "shape": [1, 7, 160, 192], "dtype": "float32"}, {"name": "conv2d_905/kernel", "shape": [1, 1, 768, 192], "dtype": "float32"}, {"name": "conv2d_906/kernel", "shape": [1, 1, 768, 192], "dtype": "float32"}, {"name": "conv2d_907/kernel", "shape": [1, 1, 768, 192], "dtype": "float32"}, {"name": "conv2d_908/kernel", "shape": [1, 7, 192, 192], "dtype": "float32"}, {"name": "conv2d_909/kernel", "shape": [7, 1, 192, 192], "dtype": "float32"}, {"name": "conv2d_910/kernel", "shape": [1, 1, 768, 192], "dtype": "float32"}, {"name": "conv2d_911/kernel", "shape": [7, 1, 192, 192], "dtype": "float32"}, {"name": "conv2d_912/kernel", "shape": [1, 7, 192, 192], "dtype": "float32"}, {"name": "conv2d_913/kernel", "shape": [7, 1, 192, 192], "dtype": "float32"}, {"name": "conv2d_914/kernel", "shape": [1, 7, 192, 192], "dtype": "float32"}, {"name": "conv2d_915/kernel", "shape": [1, 1, 768, 192], "dtype": "float32"}, {"name": "conv2d_916/kernel", "shape": [1, 1, 768, 192], "dtype": "float32"}, {"name": "conv2d_917/kernel", "shape": [3, 3, 192, 320], "dtype": "float32"}, {"name": "conv2d_918/kernel", "shape": [1, 1, 768, 192], "dtype": "float32"}, {"name": "conv2d_919/kernel", "shape": [1, 7, 192, 192], "dtype": "float32"}, {"name": "conv2d_920/kernel", "shape": [7, 1, 192, 192], "dtype": "float32"}, {"name": "conv2d_921/kernel", "shape": [3, 3, 192, 192], "dtype": "float32"}, {"name": "conv2d_922/kernel", "shape": [1, 1, 1280, 320], "dtype": "float32"}, {"name": "conv2d_923/kernel", "shape": [1, 1, 1280, 384], "dtype": "float32"}, {"name": "conv2d_924/kernel", "shape": [1, 3, 384, 384], "dtype": "float32"}, {"name": "conv2d_925/kernel", "shape": [3, 1, 384, 384], "dtype": "float32"}, {"name": "conv2d_926/kernel", "shape": [1, 1, 1280, 448], "dtype": "float32"}, {"name": "conv2d_927/kernel", "shape": [3, 3, 448, 384], "dtype": "float32"}, {"name": "conv2d_928/kernel", "shape": [1, 3, 384, 384], "dtype": "float32"}, {"name": "conv2d_929/kernel", "shape": [3, 1, 384, 384], "dtype": "float32"}, {"name": "conv2d_930/kernel", "shape": [1, 1, 1280, 192], "dtype": "float32"}, {"name": "conv2d_931/kernel", "shape": [1, 1, 2048, 320], "dtype": "float32"}, {"name": "conv2d_932/kernel", "shape": [1, 1, 2048, 384], "dtype": "float32"}, {"name": "conv2d_933/kernel", "shape": [1, 3, 384, 384], "dtype": "float32"}, {"name": "conv2d_934/kernel", "shape": [3, 1, 384, 384], "dtype": "float32"}, {"name": "conv2d_935/kernel", "shape": [1, 1, 2048, 448], "dtype": "float32"}, {"name": "conv2d_936/kernel", "shape": [3, 3, 448, 384], "dtype": "float32"}, {"name": "conv2d_937/kernel", "shape": [1, 3, 384, 384], "dtype": "float32"}, {"name": "conv2d_938/kernel", "shape": [3, 1, 384, 384], "dtype": "float32"}, {"name": "conv2d_939/kernel", "shape": [1, 1, 2048, 192], "dtype": "float32"}, {"name": "dense_16/kernel", "shape": [2048, 128], "dtype": "float32"}, {"name": "dense_16/bias", "shape": [128], "dtype": "float32"}, {"name": "dense_17/kernel", "shape": [128, 17], "dtype": "float32"}, {"name": "dense_17/bias", "shape": [17], "dtype": "float32"}]}]}